script/Classify/save/1/checkpoint.pth (torch_old, 93559 bytes, 12 tensors)

hidden1.weight f4 [32, 64]
00000000: 4b46 df3b b62e b83d f145 8c3b c304 9abd
00000010: f17d 33bd 97fb 7e3d 25fa ffbd d948 a7bd
00000020: 5492 d6bc 00b1 1fbe 3cce efbd 8404 b1bc
00000030: 9641 04bd 0cca ecbd 95a7 3b3e 4222 803c
00000040: 9974 c7bd d417 89bd 382b c4bd d856 343c
00000050: 0eb6 693e 8267 b4bd 42f0 773d 72ae fc3d
00000060: 9d64 f53b 8700 1abb f092 69be ff39 d43d
00000070: 52d8 2cbe 86fa 7c3d aa6c 5abe 93af 183e
00000080: 5628 1dbb 7964 08be 3b83 4a3d 2f9d 1a3d
00000090: 4170 e4bd 49c2 cdbd 2c24 34be 9535 c03d
000000a0: c282 9e3d 6321 a1bd ac47 af3d 8a62 493c
000000b0: 4e40 463c e776 d7bd c26c 2e3d 508a 92bd
000000c0: 78cb c23c ce2c babd d7e8 bfbc f49a e63d
000000d0: ec8d 893d 9a19 a9bd feb0 133d c080 7dbd
000000e0: 904c 003e d6be 95bd 7fd4 633d 26e7 87bd
000000f0: bd3a bfbc bafb 93bd 3574 0ebd 417d d23d
00000100: d0c8 693d d32c b63d 2cdf 163e aa38 bfbc
00000110: f018 dabd 0f88 bf3c 3200 f2bd da82 db3c
00000120: dea9 b6bd 69e3 4339 b4bf fb3c c536 a9bd
00000130: 61da 8f3d aeef 463c 30e0 eabd 7243 45bd
00000140: 96b9 ae3c 0249 de3c 88d8 8f3d 01de ac3d
00000150: 506d 67be 6390 0bbe cb2c 15bc 5912 27bd
00000160: b057 fb3a f355 93be 367f 91bd 4797 62bd
00000170: 50c4 40bb 1818 60be 262b 1cbe fba1 243d
00000180: a378 f23d 15a8 46bd 2878 853d 86c6 92bd
00000190: 813b 2dbd ca6a a73d 1663 51bc 4cf2 0b3e
000001a0: b223 6c3d b153 443d 8396 5e3d c22c 6a3d
000001b0: 1591 c7bb 3263 ccbd f2fe e8bc 7bb3 193d
000001c0: cc54 1fbd 7715 aa3b e8ad 723d 3b11 a33d
000001d0: 03a4 f5bc 31e9 aebb 2f73 ac3d 0e04 b33c
000001e0: 86b2 943c be94 e4bd 24ea 9737 8cb8 7b3d
000001f0: b463 c9bd b9d8 ac3c 3b6c 863b f983 12bd
00000200: 2466 f63d a4c4 b63d a841 343c 05cc 023c
00000210: d93e a9bd 8810 103e a126 8ebc c7ab 00bd
00000220: 7583 c73c e279 1c3b a869 2ebc 5e7e 04bc
00000230: 7dd6 163d d439 c3bc 22ca 023d 4219 a6bd
00000240: 8e2f 543c 5407 2dbd 3fbd eebe ed81 293e
00000250: 8ef7 21bf 5bf8 1e3f 905c 0d3e 1c97 373e
00000260: af81 0dbe d09f 073d c733 353f df24 84be
00000270: 5dd4 583e 8bc8 963e 0819 76be a999 103f
00000280: 1958 cc3c 3fb2 b4bc 6242 2a3c 1f13 37bc
00000290: ff19 e6bd a118 923d e6ba b0bc 6039 1ebe
000002a0: 71d0 a1bd d32a 9e3c 4783 973c 89a7 39bd
000002b0: ec12 3a3d 8344 85bd 9585 b43d ac37 8bbd
000002c0: 1543 2b3c 9851 dc3b d471 39bc 707c c33d
000002d0: b5a2 c5bc 5f61 cbbc 2177 553d 29cc b83d
000002e0: e4ca 75bd 4877 89bd 5660 2b3d 626e e3bc
000002f0: 84c0 7bbd 99ef 843d 9ece c3ba abbb 493d
00000300: d49e dbbd edf0 42bc 1532 243b 4185 94bc
00000310: 8c99 19be 9107 90bd 7c14 31bd e99b 8ebd
00000320: 5a34 b2bd 2e5f 57bd 3777 ccbd cfed 86ba
00000330: 3994 75bc c65a a2bc 5789 a13c ad17 a03c
00000340: eea4 82bd d643 b93c 3d84 3e3d a22b 75bd
00000350: d0fc aebd f2a7 c8bd 6195 743d 724a 03be
00000360: 48bf 42be dc72 853e 1a83 823e e8ca 063e
00000370: fd73 50be b7c3 5b3e 4098 acbd 35af 73be
00000380: a4fa 8cbd b3f8 04be d718 2ebd b155 413d
00000390: 6d6b 083c 43ce 233d 4606 303d e802 3bbe
000003a0: d2fe b73c c663 14be 011f 2e3d 9d6b 1d3e
000003b0: d505 f1bd 09d5 74bd c16a 933d 8328 b7bd
000003c0: cf06 0bbd 5d14 1a3d cb72 823c 6177 723d
000003d0: 6994 aabc 9728 a23c 344e aa3c 88ed 4c3d
000003e0: c344 6fbc 758a 18bd a447 1bbd 3243 bd3d
000003f0: c7e5 26bd 2053 023d 4c1e fabc aacb 4fbd
0.0068137995 0.089932844 0.0042807986 -0.075204395 -0.04382128 0.062251654 -0.12498883 -0.081681915
-0.026192822 -0.15594864 -0.11709258 -0.021608599 -0.03228911 -0.11561975 0.18325646 0.015641335
-0.09739036 -0.06693998 -0.09578556 0.011007033 0.22823355 -0.08808805 0.060531862 0.1233796
0.0074888007 -0.002349885 -0.22809958 0.103626244 -0.16879395 0.061762355 -0.21330515 0.14910726
-0.002398034 -0.13319577 0.049441557 0.03774756 -0.11154223 -0.100468226 -0.17591923 0.0938522
0.07739784 -0.07867696 0.08558592 0.01229156 0.012100292 -0.10520726 0.04258419 -0.07155287
0.023778662 -0.09090577 -0.023426456 0.11260024 0.067165226 -0.08256836 0.036057465 -0.061890364
0.12529206 -0.0731179 0.055622574 -0.06635885 -0.023343438 -0.072257474 -0.034778792 0.102777965
0.057076275 0.08895268 0.14733571 -0.02334245 -0.10649288 0.023380307 -0.118164435 0.026795793
-0.08919118 0.00018681366 0.03073106 -0.082623996 0.07024074 0.012142105 -0.114685416 -0.048160024
0.021328729 0.027134422 0.07023722 0.084407814 -0.22600293 -0.13629298 -0.009104918 -0.040788982
0.0019175913 -0.28776512 -0.07104342 -0.05532005 -0.0029413886 -0.21884191 -0.15250835 0.04019354
0.11839416 -0.04850014 0.065170586 -0.071667716 -0.042293075 0.08174665 -0.012779972 0.13666648
0.05765123 0.047931377 0.054342758 0.05717159 -0.006090293 -0.099798575 -0.02844188 0.03752468
-0.038899228 0.005190547 0.05924788 0.07962271 -0.029985433 -0.005337857 0.08420407 0.02185252
0.018151533 -0.11161183 1.8109633e-05 0.061455294 -0.0983347 0.021099435 0.0041022575 -0.03577039
0.120312005 0.08924225 0.011001982 0.007983212 -0.0826394 0.14068806 -0.017352404 -0.03141382
0.024354676 0.0023876359 -0.010645308 -0.008086769 0.036825646 -0.023831286 0.03193105 -0.08110286
0.012950791 -0.042243317 -0.46628758 0.16553469 -0.63268363 0.6209771 0.13804841 0.17928737
-0.13819002 0.033111393 0.7078213 -0.2580938 0.2117476 0.29449877 -0.24032986 0.56484467
0.024944352 -0.02205765 0.010391803 -0.011173992 -0.11235427 0.07133604 -0.021573495 -0.15451574
-0.07901085 0.01930753 0.018495215 -0.04532579 0.0454282 -0.06507208 0.08814541 -0.06797728
0.010453005 0.006723594 -0.011318643 0.09545219 -0.024125436 -0.024826704 0.052115563 0.090233155
-0.060007945 -0.06712204 0.04183992 -0.027762596 -0.061462894 0.06491012 -0.0014938896 0.04925124
-0.107236534 -0.0118982615 0.0025054265 -0.018129947 -0.1499998 -0.07032693 -0.043232426 -0.06963331
-0.087013915 -0.052581005 -0.09983676 -0.0010294261 -0.014988952 -0.019818675 0.019718809 0.01954254
-0.06379114 0.022615355 0.04651283 -0.059856065 -0.08544314 -0.09797658 0.05971277 -0.12821367
-0.1901828 0.26064193 0.25490648 0.1316334 -0.20356746 0.21461378 -0.08427477 -0.23797305
-0.068837434 -0.12985496 -0.042504158 0.047200862 0.008326394 0.03999163 0.042974733 -0.18262827
0.022460375 -0.14491186 0.042510036 0.15373082 -0.117686905 -0.05977348 0.07198096 -0.08943274
-0.03394204 0.037617076 0.015923878 0.05919588 -0.02082272 0.019794745 0.020789243 0.050031215
-0.014603796 -0.037241418 -0.03791012 0.09241332 -0.040746477 0.031817555 -0.030532025 -0.05073134

hidden1.bias f4 [32]
00000000: b908 0f3e c8e9 c63c 477d d83d a94b 843d
00000010: c728 3c3c b297 cd3d f604 5b3e 7f4c b6bd
00000020: bab5 76bd e144 80bc 9cfd aa3d f603 99bb
00000030: c2ae 11bd 1ee4 16be 6fb3 be3d 81e9 d53d
00000040: 63db b3bd ed40 8a3d 4264 f8bd acd2 aebc
00000050: b55d f83c d4cc e23d a2bb 0b3e f73e 293d
00000060: 99bf c93c 9c87 70be 7a71 fabc 415d 2ebb
00000070: d700 01bd 2e3c 093d a38b d73d 1515 413d
0.13968171 0.024281397 0.1057077 0.064597435 0.011484331 0.10038699 0.21388611 -0.08901309
-0.0602319 -0.015657844 0.083491534 -0.0046696616 -0.035567053 -0.14735457 0.09311568 0.10444928
-0.08782079 0.06750665 -0.12128498 -0.02134069 0.03031812 0.11074224 0.13645795 0.041319814
0.024627494 -0.23489231 -0.030571688 -0.0026605877 -0.03149494 0.033504657 0.105246805 0.047139246

hidden2.weight f4 [64, 32]
00000000: a224 5c3e 724b 09bd 677a f33d df5d 163d
00000010: 2a13 73bd ede9 8cbe 9d0f 0c3e 09a1 363e
00000020: ab9f 01bf 5c0a fa3d 1b33 113e 1b5d eb3d
00000030: 2586 31be 0841 003e 6cd7 15ba 44b2 e7bd
00000040: 19b8 163e 4c32 8bbd 3f6a 8c3d 978e 993d
00000050: e62b e13d 9e26 873d a2c2 55be 5786 68bd
00000060: ac1b 50bd f4b5 183e 201d 3b3d b8a7 a5bd
00000070: c4d8 7d3d a99e 69bf 7c08 583d 6c00 ee3d
00000080: c008 293e 5347 33be c7a2 3dbd 1f26 993d
00000090: 3870 75bd 34f1 5e3d 919c f83b 3e52 5f3d
000000a0: 01c0 9b3d 5fb3 263e 2e5c 393d 1aad d73c
000000b0: 2cd8 1ebe e262 e3be 1853 35be 9ad9 983d
000000c0: 1d5c 79bd f429 1bbe 5222 0ebe 4086 b43c
000000d0: 4ecc 5a3e 855e 783d 4905 16be 2b37 4a3e
000000e0: dc13 413e 9852 0b3d ab1d eebd c3e3 aa3d
000000f0: f2dd 493d af35 bebe dfa2 3dbe 59d4 33bd
00000100: 8c30 7ebd a823 08be a791 debd 102a 703d
00000110: c532 343e cc3c 063e 81c9 093e 19d4 aebe
00000120: 2d50 043e 8824 e0be 2efd 9bbc e788 fd3d
00000130: c699 8cba f9e7 39be 3c2c f9bd 73da 1b3e
00000140: d2ee 173e c01c e03c bb52 4fbd 70ff f8bb
00000150: 1ccf b9bb 3db0 833c e692 43be f90d 41be
00000160: 9334 0abe 787e c43d 524e b13d 21b2 68be
00000170: c892 b33c 4a6a 123e cf7b ce3b bdcf f4bd
00000180: b893 a73d 7323 fdbc 743b 9dbd bd51 d8bd
00000190: 98c4 543e a110 ecbd 1689 f43d f080 65bf
000001a0: 3bd6 dcbd 6ae9 373d ef07 9abe 3703 8a3e
000001b0: 6637 503e eeb2 d33e ee1d b83c 827a b93d
000001c0: 9eed 983d b760 473e eced 30bd 60d9 28be
000001d0: c017 f93d db00 28be d51d bb3d d496 d2bc
000001e0: 23cd 1e3e d886 efbd de13 d63d 6801 18be
000001f0: 5346 7b3e 2eb4 b93e fa67 04be 51e0 e6bd
00000200: a351 04be b08b 2d3e da3b 5abc 3149 103e
00000210: 1d35 4f3e 61b1 553e 9cce 493e 7c1f 03bf
00000220: 5689 943e 8e6f 8fbe eb27 29bd c76b 863d
00000230: 2293 32be a343 58be d85d 433e dbd5 29be
00000240: 827a 0bbd 125e 55bd 4bdf 773e 4211 e7bc
00000250: 9c62 eebd ca3d 7bbd 97a9 633d e68b ddbd
00000260: dfbe 9fbd bb6c d6be 3e64 92bd 97c9 1abd
00000270: 0c45 c73e 0e1f a53e 362a 263e 91e3 09be
00000280: 6943 c13d b3f8 1f3d d46e 913c 829b 913d
00000290: c34c b0bd 040e d43b afe6 0abe 48d6 ddbd
000002a0: f060 85bd fb01 953e edfe af3b f8bb 133e
000002b0: 4447 583e cdf6 7cbd 285d 1dbe 32d3 843d
000002c0: be6f 92bd 2503 453e 3ed1 9abd 57a6 d1bc
000002d0: 9e6a 73be 4cbc 1dbe 46a9 173d 5ad0 e1bd
000002e0: 5db1 b83d ab07 953a 431d b33d 1c71 1f3e
000002f0: 90a7 a2be d967 8fbc 719f 3a3e 1710 68be
00000300: ac80 953c 92b9 77bd af43 1fbd 1c3f 063f
00000310: 3f6a 143e 6976 b43d 6dee 48bd 508c 0d3e
00000320: 973e 353e bdc5 213e a17b e63d eb88 3dbe
00000330: 4d9a da3d c844 7dbf 77ec bfbe 60fd f63d
00000340: 4209 c5bd 2c3f 26be a0bd 7f3f 081c 213c
00000350: 81d0 163e bcfb 683d 12ef cabd ed8e c43e
00000360: 54cd 6abe c021 563e 0adf 99bd 50f3 da3d
00000370: 8375 dfc0 e2f5 f23e 2a3c 91bd ee68 00be
00000380: a38e 823d f97a a73b 1034 e8bc 81d4 c73c
00000390: 73f2 8c3d 9940 19be cfcc 77bd f895 6fbe
000003a0: 4411 e13d 9da2 a63e 594b 5b3e f7c9 543d
000003b0: 5cdb c13d 458f 143f a848 11bd e154 213e
000003c0: 122c 493e 214b fe3d 7f16 6abd 1f32 0e3e
000003d0: ab01 c9bb 1d0b f0bd bbf7 a43d cc1a 2bbe
000003e0: 1850 173e 59ea 683e f959 1f3e 39bc 03be
000003f0: 9e8f 033e 4add 103e a543 58bc e315 0e3e
0.2149835 -0.033519216 0.11888581 0.036710616 -0.05934445 -0.2752222 0.13677831 0.17834868
-0.5063426 0.12209007 0.14179651 0.11492368 -0.17336328 0.12524807 -0.0005715999 -0.11313298
0.14718665 -0.06796703 0.06856202 0.074979 0.10994701 0.065991625 -0.20875028 -0.05676874
-0.05080764 0.1491316 0.045682073 -0.080886304 0.061974302 -0.9125772 0.052742466 0.11621174
0.16507244 -0.17507677 -0.046297815 0.07477974 -0.059921473 0.054429248 0.0075870235 0.05452179
0.07604981 0.16279362 0.045253925 0.026327658 -0.1551215 -0.4441138 -0.17707479 0.07463379
-0.06087886 -0.15152723 -0.1388028 0.022036672 0.21366999 0.060637016 -0.14650454 0.19747607
0.18855232 0.034014314 -0.116267525 0.08344223 0.04928393 -0.37150332 -0.18519162 -0.043903682
-0.062058017 -0.13294852 -0.10867625 0.058633864 0.17597492 0.1310913 0.13455774 -0.34146193
0.1292121 -0.4377787 -0.019041624 0.12379628 -0.001072698 -0.18154897 -0.1216664 0.1522005
0.14837196 0.027357459 -0.050616007 -0.00759881 -0.0056704413 0.016075248 -0.19099006 -0.18852986
-0.13496618 0.095944345 0.086575165 -0.22724201 0.021920577 0.14298359 0.00630138 -0.119536854
0.08182472 -0.030900693 -0.076773554 -0.10562465 0.2077812 -0.11526609 0.119402096 -0.8964987
-0.10783049 0.044900335 -0.30084178 0.26955578 0.20333633 0.4134745 0.02247521 0.0905657
0.07467197 0.19470488 -0.04319565 -0.16489172 0.12162733 -0.16406576 0.091365494 -0.025706686
0.15507941 -0.11695641 0.10453008 -0.14844286 0.24538545 0.3627028 -0.12930289 -0.11273254
-0.12921767 0.16947818 -0.013319934 0.1409042 0.20235105 0.20868446 0.19707721 -0.51219916
0.2901103 -0.28014797 -0.041297834 0.06563526 -0.17438939 -0.21119551 0.19078767 -0.16585486
-0.03405238 -0.052091666 0.24206273 -0.028206471 -0.11639902 -0.061338224 0.055581655 -0.10817699
-0.07800078 -0.4187983 -0.07148026 -0.037789907 0.38919866 0.32250255 0.1622704 -0.13465716
0.094366856 0.039055537 0.017753042 0.07109739 -0.08608391 0.0064713974 -0.13564561 -0.108318865
-0.0651263 0.29103073 0.0053709657 0.14427173 0.21120936 -0.061758805 -0.15367568 0.06485595
-0.071502194 0.19239481 -0.07559441 -0.025592012 -0.2377114 -0.15403861 0.037026666 -0.11026068
0.09018204 0.0011370083 0.087458156 0.15570492 -0.31768465 -0.017505573 0.18224885 -0.22662388
0.018249832 -0.060479708 -0.038882907 0.5244005 0.14493655 0.088116474 -0.049055506 0.13823056
0.17699657 0.15798087 0.11254049 -0.18509261 0.10673962 -0.98933077 -0.37485096 0.12060046
-0.096209064 -0.16235036 0.9989872 0.009833343 0.14727975 0.056880698 -0.0990888 0.38390294
-0.22929889 0.20911312 -0.075132445 0.106909394 -6.9830947 0.4745322 -0.070915535 -0.12540027
0.06374862 0.005111095 -0.028345138 0.024393322 0.06882181 -0.14966048 -0.060498055 -0.23397052
0.10989621 0.3254594 0.21415462 0.05195042 0.094656676 0.5803111 -0.03546968 0.15755035
0.19645718 0.124166735 -0.05715036 0.13886307 -0.006134232 -0.1172087 0.08055063 -0.16709441
0.14776647 0.22745647 0.15561666 -0.1286477 0.12847754 0.14146915 -0.013199721 0.13875537

hidden2.bias f4 [64]
00000000: 3902 45bd c589 273e 03e4 2a3e 4a26 493d
00000010: 6361 4c3e 1827 e2bd 4ac4 783d 9a61 7abd
00000020: ddff 82bd 1594 9f3d ce3e 3bbb 3cfc e63d
00000030: 0d14 fcbc a7c4 d53d 85f6 0cbe b667 3a3d
00000040: dce6 103e ac92 b6bc d372 633d 5f4b 623c
00000050: 99ed f9bd eb7a 0a3d 612e 983d dccf d73b
00000060: fe3c 97be 36d6 8c3c 635a e4bd c565 5e3e
00000070: 40c5 97bc 8649 a1bd f78a 5b3d f564 b9bb
00000080: 9ad8 353d 75d7 64bd 60c4 283e 7782 293d
00000090: 31f4 4b3e 049b 31be abc9 e2bd f9bd 7ebd
000000a0: a084 3ebe 8cfb 50bd f2fb 67bd 7cab 633c
000000b0: 8d69 f5bc 7ca1 ac3d 1d66 24be 26b4 d3bc
000000c0: 32e3 3d3e 53df 92bd 2f6d 69bd 68e8 033e
000000d0: 2215 03be 1b19 83bd e5cf 89bc 84db 50bd
000000e0: b1a8 2c3e dece 2d3e fe2b 233d 6338 0f3e
000000f0: bdfe 6dbd 6c03 253e fe62 8f3d 3074 1fbc
-0.048097823 0.16361149 0.16688542 0.04910878 0.19959025 -0.11042613 0.06073407 -0.061128236
-0.06396458 0.07791916 -0.002857137 0.11278579 -0.03077128 0.10437899 -0.13765915 0.045509063
0.14150566 -0.022286735 0.055529427 0.013811915 -0.12203521 0.03380863 0.07430721 0.006586058
-0.2953872 0.017191987 -0.111500524 0.2171851 -0.018526673 -0.078753516 0.053599324 -0.005657787
0.04439602 -0.05586954 0.16481161 0.041384187 0.1991737 -0.1734429 -0.11073621 -0.06219289
-0.1860528 -0.051021144 -0.05663676 0.0138958655 -0.029957557 0.08429238 -0.16054578 -0.025842737
0.185437 -0.07171502 -0.05698889 0.12881625 -0.1280103 -0.06401273 -0.016822765 -0.050990596
0.16861226 0.16973445 0.039836876 0.13986354 -0.058104265 0.16114587 0.07001303 -0.009732291

hidden3.weight f4 [128, 64]
00000000: 60a8 b6bd b4ba 4a3d b12d 13bd e370 d4bd
00000010: 0c17 3cbe 5bd2 3cbe 3740 07be d05d 0bbc
00000020: d2d8 e23d 53cd 503d 7461 973c 3de8 8c3c
00000030: 047a 13bd 9f5f 483d a250 673d ec78 b7bd
00000040: eb8f 933d eece 15bd 031d cbbc c1d2 593c
00000050: be87 933d ece6 19be 8740 e43d c9e8 ca3d
00000060: 50f1 7bbc 26a2 03be 6920 b43d 8bd1 863d
00000070: 080e 043d a3bf bbbc daa8 29bd 7a11 90bd
00000080: c86e 6bbd 5838 14bc d638 983d 336f e7be
00000090: d828 fabc f74c be3d 0f66 5fbd 2320 c6bd
000000a0: 583c b03d 0a56 95bd 96bf f53d 5408 d13d
000000b0: 2477 41bd a92e 8dbd 2964 b5bd 806f ee3d
000000c0: 15a7 e63d e4aa dc3d 61dd c13d 7752 d33d
000000d0: fbbd 87be 08c8 58bd 617e 09be fe71 c1bd
000000e0: 0f78 433d 3cc5 c13d 02ec cfbd 4be0 043e
000000f0: 6bc9 80bc 0cce 483e 34fe 9bbd 686c fa3c
00000100: a74d d83d 579e f53d 67f3 8fbd 31c0 d03c
00000110: 5119 18be aa4e c7bc 86de fbbd 0d75 eb3d
00000120: ed8c 1a3e 1220 383d bd0b c73d 6f0e 193d
00000130: fa2a 193e b6ef f53d 3c26 9dbd 2c3f 163e
00000140: 20cb 45bb 508f 103e 0c43 203c 1b04 7fbd
00000150: 7215 a5bc 2c37 debe a926 93bd 5336 54bd
00000160: 4e20 8f3d 292f 0f3e 32be 9d3c d11f a13d
00000170: a6db eabd 5b35 f63a 5b8b 7d3d ad4b 21bd
00000180: 66ac 4cbe 40f0 05be a674 cc3d 1433 1dbf
00000190: d9be fcbd 14a5 0cbe c0ff 053e 4e2d 6abd
000001a0: 455b 31ba 50fc 44b8 c5c3 ca3e fd73 8a3c
000001b0: deec c9bc 5bbb 5d3d 51d9 d0be 81aa 8e3d
000001c0: 091a 29bd 1559 1abe 444a 2bbd f338 b83c
000001d0: b4af 5fbe 5571 873d 4a71 0abd 9cf3 0cbe
000001e0: efc4 b23c e50f 593d 29ee 3ebd 4173 b93d
000001f0: 79e3 003e 57ba 0c3d c645 ffbd 8867 9a3d
00000200: c3ab 9dbd 91d8 0a3e 6b0c 92bc 23ef ffbd
00000210: 6f00 27be 3363 193c 20e4 563d 3843 da3c
00000220: 4c55 0bbd b710 bc3d ebb1 d73b f917 153e
00000230: 6a53 24bd 3d81 ba3d 3d94 eabd 4c40 92bd
00000240: 93fd 803c 0db9 d53d 8d8f f9bd a095 833d
00000250: 1c7b 06be 5769 08bd cdf1 083e c49b 56bb
00000260: 5d7a de3c 766b cabd 3647 49bd 66ce e43d
00000270: 0e0e df3d f340 7d3b d450 47bd 7ca9 6abd
00000280: a3e8 31bd f8b2 0dbe 06c3 533d 7c7e 96be
00000290: ea2d 4ebc 355b a83d 1e54 b7bd 41dc 1dbd
000002a0: 7b26 76bd 7833 0d3d a8f0 3d3d 5c0c 10bd
000002b0: e0b3 8ebd efff 203e b290 15be e98c 083d
000002c0: c910 82bd 3640 0ebe 0e44 743c 1c86 2b3d
000002d0: bd66 a4bd ea5a afbd 41d7 37bd 0231 a63d
000002e0: 8e44 bdbc e162 103e 7a98 16bc 0e22 123e
000002f0: d3cc 43bd bf37 d63c 6056 b5bd f806 8dbd
00000300: 11a5 82bc a79b 173b bf66 083e 2bc0 3e3d
00000310: 5dde 97bb 7688 963d f419 8b3d f55a a83d
00000320: 9b79 b43d 5bd3 d7bd 4cc1 bdbd 76bd 73bd
00000330: 852a 0abc c6a3 d93d 53b9 d03d 0d6d b4bd
00000340: 72d7 e8bd 0580 133d 99aa 3f3d 0200 f93c
00000350: 4d0c 973d 6866 1a3e 3ff3 c6bd d592 a83d
00000360: 3096 8fbc 6b90 d8bd bb61 b53d 779c be3d
00000370: 908f cabc 176b 063d df0b fabd d69f 2f3d
00000380: fa88 283e 7654 1d3e 5ded e6bc 2feb ea3e
00000390: 51d3 c63d c67d a83d 2c57 abbb 22fa a6bd
000003a0: 856f ec3c 4744 e33d 1574 c43b 7637 063d
000003b0: c8e1 db3d 8580 913d 679e 4e3e a596 a93c
000003c0: c594 423d 181a 9a3c 3352 acbd 7b7b 2ebd
000003d0: b7ef 003e 0450 99bd e014 3e3e e8df 113e
000003e0: 4bbc 17bd 96a2 da3c a0d4 1c3b 794d fdbd
000003f0: 3864 e63d 587f 183d 7d6e 183e 642d e53d
-0.08918834 0.04949446 -0.035932247 -0.10373094 -0.18368167 -0.18439619 -0.1320809 -0.008506253
0.110765114 0.050977062 0.018479086 0.017200584 -0.036005035 0.048919316 0.05647338 -0.08958611
0.072051845 -0.036574297 -0.024794107 0.013294877 0.07203625 -0.15029496 0.1114512 0.099076815
-0.015377358 -0.12854823 0.08795244 0.06582936 0.032239944 -0.022918528 -0.041420795 -0.070345834
-0.057478696 -0.0090466365 0.074327156 -0.45202026 -0.030537054 0.09292024 -0.05454069 -0.09674098
0.0860526 -0.07291801 0.11999433 0.102066666 -0.047232762 -0.06893665 -0.08856995 0.11642361
0.11262337 0.10774782 0.09466053 0.10318463 -0.2651213 -0.05292514 -0.13427116 -0.094455704
0.04772192 0.094614476 -0.10152437 0.12976186 -0.015721044 0.1960985 -0.07616845 0.03056927
0.10561686 0.119930916 -0.07028847 0.025482269 -0.14853407 -0.024329502 -0.12298302 0.11496935
0.15092821 0.04495246 0.09719036 0.03736728 0.149578 0.12008612 -0.07673308 0.14672536
-0.0030180886 0.1411717 0.00978161 -0.062259775 -0.020151827 -0.43401468 -0.07185108 -0.05180962
0.069885835 0.13982834 0.019255731 0.078673966 -0.11467676 0.0018784212 0.061900478 -0.03937881
-0.1998764 -0.1307993 0.099831864 -0.61406064 -0.12341089 -0.13734847 0.13085842 -0.057172112
-0.00067656144 -4.6965026e-05 0.39602485 0.01690101 -0.02464908 0.054133754 -0.407908 0.06966115
-0.041284595 -0.15073045 -0.041818872 0.022488093 -0.21844369 0.06613413 -0.033799447 -0.13764805
0.02182242 0.052993674 -0.046613846 0.09055186 0.12586774 0.034357395 -0.1246448 0.07539278
-0.076987766 0.13559176 -0.017828187 -0.124967836 -0.16308759 0.00936203 0.05246365 0.02664338
-0.034016892 0.091828756 0.006582489 0.14559926 -0.040118612 0.091066815 -0.114540555 -0.0714117
0.015745914 0.10435686 -0.12185583 0.06425023 -0.131329 -0.033303585 0.1337349 -0.0032746652
0.027157957 -0.09883778 -0.049140178 0.1117218 0.108913526 0.003864345 -0.048661068 -0.05729054
-0.04343475 -0.13837802 0.05169966 -0.29393375 -0.012584189 0.08220521 -0.08951591 -0.03854013
-0.06009529 0.034472913 0.046372086 -0.035168037 -0.06967902 0.15722631 -0.14605978 0.033337507
-0.06350858 -0.13891682 0.014908804 0.041875944 -0.08027408 -0.08562262 -0.044883016 0.08114816
-0.023103978 0.1410022 -0.009191627 0.14270803 -0.047802757 0.026149629 -0.08854365 -0.06886095
-0.01594785 0.0023133548 0.13320445 0.046569984 -0.004634662 0.073502466 0.067920595 0.08220474
0.08812257 -0.1053836 -0.09265384 -0.059506856 -0.008432989 0.106269404 0.10191598 -0.08809862
-0.11369218 0.03601076 0.046793554 0.030395512 0.07375393 0.15078127 -0.09714364 0.08231131
-0.01752767 -0.105744205 0.08856531 0.09307187 -0.024726659 0.032816973 -0.122092955 0.04287704
0.16458502 0.1536425 -0.028189356 0.45882556 0.09708274 0.082271144 -0.0052288976 -0.08153178
0.02886177 0.11097007 0.0059952834 0.032767735 0.10736424 0.07104591 0.20177613 0.020701716
0.04750516 0.01881127 -0.08414116 -0.04259823 0.12591444 -0.07485965 0.1856265 0.1424557
-0.037044805 0.026688855 0.0023930445 -0.12368292 0.11249584 0.03723082 0.14885898 0.11190298

hidden3.bias f4 [128]
00000000: d374 d73c 7ab4 5b3d 995f 193d 399a f83b
00000010: d0b1 9ebc 95a2 3fbd f3bc 2bbd 8624 033d
00000020: 61c6 a33d b692 a03c a9c6 67bd b55f b23d
00000030: cadc debd b358 1cbd c9c7 6e3d 3ad5 86bd
00000040: b184 053e 570a 663d 53a5 133e 605a 9c3c
00000050: 9334 9f3d 9094 43bc 42ad 7a3d d1a9 8e3d
00000060: 8bfe 283d 2054 35bd f38a 4dbc b0d5 883d
00000070: 265b e33d 3d93 d5bd 14ef 1abd e309 8b3d
00000080: 66aa 79bd 7585 71bb 161b ffbc 4296 af3d
00000090: 6cf8 e2bb 5133 ac3d b3de fa3c d95c 42bd
000000a0: a663 86bc 528e 483d ac21 5dbd b35e ef3c
000000b0: 0b07 a6bd e971 60be 0542 af3b 4080 8abc
000000c0: 30f5 b9bd 0254 1f3e 18ff 813d 489d e93d
000000d0: 9434 0cbd e2fc 2b3d 6ae8 babb e2d2 6c3c
000000e0: afec d23c 0a50 c83d 03ad 0bbe 610e 513e
000000f0: 7b12 f23d 070a c43d 3df0 8ebe 69c5 ca3c
00000100: 0b8c c3bc 3d1e 8abe fa71 82bd 7596 543d
00000110: efb2 303d a594 15bd 5502 5e3d 6485 cabb
00000120: 5a8a 05bb 394f e3bd 9e81 df3c 3a60 54bd
00000130: cceb 283d 0040 073e b0a1 87be efed 97bd
00000140: 3e29 103e 5ed3 76bd f753 073e a3ba a43d
00000150: bc26 3dbe 6138 9cbc 1e5c 97bd 2b5f da3c
00000160: 566c 143e 10b6 6e3d 8f74 43be ab2a 8d3d
00000170: b8b7 3fbe 82e5 933b fb50 8a3d 81d7 013d
00000180: 35ef d53d 408b 023d ddbd 1bbd 8462 adbb
00000190: f673 1b3e c7df d73d 4553 6b3c 2ef9 c53d
000001a0: b876 5fbd a267 2c3e d779 30bd b550 d6bd
000001b0: f1f0 b53d 8716 92bd b908 b03d 09ff b6bd
000001c0: c6c1 d6b6 dd82 17be e991 313d 8a45 b13d
000001d0: ec09 34be 0a24 233c ed7c 0a3e 5773 903d
000001e0: e24d 54b9 5849 8ebc 47d9 ecbc 7611 d33c
000001f0: 901a 1cbd bbe0 9dbd f5cc 1e3c c350 103b
0.026300823 0.053638913 0.037444685 0.007586744 -0.019371897 -0.04678591 -0.041928243 0.032017253
0.07996822 0.019601207 -0.05658594 0.08709661 -0.10881956 -0.038170528 0.058296 -0.065836385
0.13038899 0.056162205 0.14418535 0.019086063 0.077736996 -0.0119372755 0.061200388 0.06965984
0.041258376 -0.04426968 -0.012545335 0.06681383 0.111013696 -0.10428474 -0.03782566 0.06788995
-0.06095352 -0.0036853228 -0.031140845 0.08573581 -0.006926587 0.08408225 0.03062377 -0.047451828
-0.016404938 0.048963852 -0.05398719 0.02921996 -0.08106812 -0.21918453 0.0053484463 -0.016906857
-0.09079969 0.1555939 0.063474834 0.11406952 -0.03422983 0.041989215 -0.0057039754 0.014454575
0.025747625 0.09780891 -0.13640217 0.20415641 0.11819931 0.09572225 -0.27917662 0.024752336
-0.023870489 -0.26976195 -0.063693956 0.0519013 0.043139394 -0.03651871 0.054201443 -0.006180452
-0.0020376653 -0.11099095 0.027283486 -0.05184958 0.0412405 0.13208008 -0.26490545 -0.07418429
0.14078233 -0.06026017 0.13215624 0.08043411 -0.18471807 -0.019069852 -0.07390617 0.026656708
0.14494452 0.058279097 -0.19087432 0.06892904 -0.18722427 0.0045134434 0.06753727 0.03169966
0.10446016 0.03187108 -0.038022865 -0.005291285 0.15180954 0.10540729 0.014363115 0.09666668
-0.05455658 0.16836408 -0.043084946 -0.104646124 0.088838466 -0.07133203 0.08595414 -0.08935363
-6.400255e-06 -0.14796014 0.04335204 0.08655842 -0.1758191 0.009957323 0.13524218 0.07053249
-0.00020246909 -0.017368957 -0.0289122 0.025765162 -0.03811127 -0.077088796 0.00969242 0.0022020794

hidden4.weight f4 [64, 128]
00000000: c63b 463d 5d05 dabc c603 97bd 6391 6bbd
00000010: be9c 5c3d 7176 923d e2d5 643d 557f 60bd
00000020: 25bb 7b3c 3dae 8abc 6a19 31bd ae3d 0ebd
00000030: 0ad7 183d 9609 49bd 0c53 0abd 5cac 73bd
00000040: 4099 afbd 57d7 3dbc 41a6 d13c 40f1 913d
00000050: 8888 123d aba2 933d ed69 763d 2bf5 823d
00000060: b12f e53c 46c8 f7bc c175 1cbd 90ae 7e3d
00000070: a14e 333b ffbf 91bc 70de bc3c be58 28bd
00000080: 5dce 2dbd b034 6bbd e257 18bd 496d c53c
00000090: 9b68 5b3c 0ba7 0e3d 2d6e 89bd 48d8 823d
000000a0: 74ed f6bc de49 843d c70c a23b 14ae b43c
000000b0: 284c 4d3c b732 80bd 3f3a 4d3d fea1 a2bd
000000c0: 280c 25bc 5b84 debb d9bd 88bd 1348 55bd
000000d0: 212c 8e3d 8ebd 923c 2ba1 ab3b 892d 34bd
000000e0: e623 8b3d 7aad 4dbd cac5 0a3d b719 b43c
000000f0: 0cc8 643d 2b4d c7bc 520b 26bd 5f01 c2bc
00000100: 3de6 003d e687 8c3c 4d34 9bbd 14bd 22bd
00000110: c4e1 583d 4a18 a9bd ab70 09bd 6ded f4bc
00000120: 54e3 8f3c 1d53 aabd 8cab f9bc 647c 9bbd
00000130: 69eb 07bd d166 323b 9278 243d 0227 513d
00000140: e794 88bc 2e20 233d fa85 8abd 0b92 a5bd
00000150: 6d93 0fbd 49b5 cb3c 465e 5d3d 2bd1 5d3c
00000160: c4ce 083d 986b 8abd ff8b 20bd 4d0a 0fbd
00000170: 72e4 52bc 1799 a5bd bb7f 8f3d bf4f 04bd
00000180: 38bb b43c 3b9c ffbc 4d8e e83c dd75 833d
00000190: 55fd babb 1b38 c7bb 39ba acbc 5b04 abbd
000001a0: c292 133c 0000 2b3c 5b53 a5bd b55d 953c
000001b0: d7bc 92bc 6a03 653d 361f 8fbd 1864 683d
000001c0: c903 11bd c9c6 d33c 6933 bcbd 769a cabc
000001d0: b4f5 853d 008f 643d 6849 a4bd 69bf 6abd
000001e0: 0ca3 0a3d d8db fc3c 11e3 b9bc d723 9ebb
000001f0: b8d3 90bd f179 9e3d a115 09bd 5b42 973d
00000200: 740e 34bd e937 5c3d 86a8 27bd 6f19 c5bd
00000210: 54b3 193d fc1c ccbb 98af 0e3d e12f fc3d
00000220: 3094 a23d b815 be3d 6376 39be 46f7 2fbd
00000230: 980e 3b3c 8fa9 4a3d 6169 b2bd 2800 8c3d
00000240: be15 693d bcab 293c cb2e aebd 6b8c 81bd
00000250: bcc1 8e3d 4087 5dbb 41e1 a23d 58c5 d73d
00000260: 16e2 e83a e42a d1bc cf9f a53f a0ea e13d
00000270: 673d c93d 88e6 85bc e0ae fb3b 89c0 843d
00000280: 30cd aebb 5565 2dbd 153b 2dbd ae9d 15bd
00000290: 4f11 173c 7e14 193d bf19 4f3d 2bf1 d2bc
000002a0: c5ed 383d a032 9f3d 9a66 bebd f286 30bd
000002b0: 5ad3 5fbd 1ee8 2abe 27d7 9a3d 46c0 ad3c
000002c0: c010 003d 7dde 8c3c 291d 333b 8dd2 8e3c
000002d0: 18a3 9ebc efe7 03bd 1428 86be 0c46 92bd
000002e0: 2bbb 803c 3670 ba3d e901 03bf 7e3b 1dbd
000002f0: 29bf 62bd 95e9 1b3c f501 cf3e e80c 88bd
00000300: dd53 df3d 7422 d9bc 5faf aa3d df20 c73d
00000310: 224f 92bd 79ab 35bd 4218 173e 95b2 b3bc
00000320: 293c 993f fd97 3abd 430f 1a3f 5098 01bd
00000330: 92c1 f8bc 22b4 f5bc f50a f23d 1fed 35bd
00000340: 7d1c 8cbe e4fd 953d 3504 c83c 6844 cdbd
00000350: 4f4a 503b 83d5 683d 948c 07bd 3866 743d
00000360: 2f8f 383e 4e00 acbd 0bf8 9b3f 6bb3 8c3d
00000370: 5cd7 f13d fb5a c5bb ed04 84bc d037 343c
00000380: 08f8 733e 0d45 ee39 04bb a43b f9a3 ac3d
00000390: ae40 083d aa96 bc3d d832 673e 4869 dcbd
000003a0: 4362 92bd b541 32bd e629 02bd 7129 343e
000003b0: 2cda adbd 176d 22bd 75fb 60bf efac 15bd
000003c0: 8bf4 3a3d 3ec2 9dbc 820b 793d 72c7 de3d
000003d0: 1b33 473c 4c5d c03d b41f 63bc ecdf 663d
000003e0: f617 a53f 8086 73bc 7629 48bd 07a2 413d
000003f0: f349 8f3d 2bfb c9bd 5d20 823e 5d68 703c
0.04839685 -0.026613886 -0.073737666 -0.0575117 0.05386042 0.07151497 0.055868037 -0.054808933
0.015364443 -0.016928786 -0.043237127 -0.03472679 0.037314452 -0.049081407 -0.033770606 -0.059490547
-0.08574152 -0.011586986 0.025591971 0.07126093 0.035774738 0.07208761 0.060159612 0.06394418
0.027976843 -0.030246865 -0.038198236 0.062178195 0.00273601 -0.017791746 0.023055285 -0.041100256
-0.04243313 -0.057423294 -0.037193187 0.024099963 0.013391639 0.034827273 -0.067104675 0.063889086
-0.030142523 0.064594015 0.004945371 0.022055663 0.012530364 -0.06259673 0.050104376 -0.07941054
-0.010073699 -0.0067906803 -0.066768356 -0.05207069 0.06942011 0.017912652 0.0052377186 -0.04398874
0.067939565 -0.05021427 0.033880033 0.021984918 0.055854842 -0.024328789 -0.04053814 -0.023682294
0.031469572 0.017154645 -0.07578335 -0.0397311 0.052949682 -0.08256586 -0.033554714 -0.02989837
0.017564453 -0.08316634 -0.030477308 -0.07592085 -0.03318349 0.0027221928 0.040154047 0.05106259
-0.016672565 0.03982561 -0.06763835 -0.08084496 -0.035052706 0.024866717 0.054044984 0.013538639
0.033400312 -0.06758803 -0.03919601 -0.034921933 -0.012871848 -0.0808584 0.070067845 -0.032302614
0.02206193 -0.031202426 0.028388167 0.06418965 -0.005706469 -0.0060796863 -0.021084892 -0.0835044
0.009007158 0.010437012 -0.080725394 0.01823316 -0.017912311 0.05591146 -0.06988375 0.05673608
-0.035404 0.025851624 -0.09189493 -0.024731856 0.06541005 0.055800438 -0.08021814 -0.05731145
0.0338469 0.030866548 -0.022691282 -0.00482605 -0.07071632 0.07738102 -0.033467893 0.07385703
-0.043959096 0.053764258 -0.0409322 -0.09623992 0.037524536 -0.006229041 0.034835428 0.1231382
0.07938421 0.09281486 -0.18111567 -0.042960428 0.011417054 0.04947811 -0.08711506 0.06835967
0.0569055 0.010355886 -0.08505019 -0.06325611 0.06970546 -0.003380254 0.0795312 0.10535687
0.0017767574 -0.025533147 1.2939395 0.11031079 0.09826165 -0.016345277 0.007680759 0.06482036
-0.005334519 -0.042332966 -0.042292673 -0.03652733 0.009220435 0.03737306 0.050561663 -0.025749763
0.04514863 0.07773328 -0.092969134 -0.043097444 -0.05464492 -0.16690108 0.07560568 0.021209847
0.031265974 0.017195934 0.0027330613 0.017434383 -0.019364879 -0.03220361 -0.26202452 -0.07142267
0.015714249 0.09103434 -0.5117479 -0.038386814 -0.055358086 0.0095161395 0.4043118 -0.06643087
0.109046675 -0.026505686 0.08334231 0.097230665 -0.07144 -0.044352982 0.14755347 -0.02193574
1.1971484 -0.045555104 0.6017954 -0.031639397 -0.030365739 -0.02999312 0.11818496 -0.04441559
-0.27365485 0.073238164 0.024416069 -0.10022813 0.0031782573 0.056844246 -0.03309305 0.059667796
0.1802337 -0.083984956 1.2185072 0.06870159 0.11808655 -0.0060228086 -0.01611563 0.010999635
0.23825085 0.00045446344 0.005027177 0.08429713 0.03326481 0.092084244 0.22577989 -0.10762268
-0.07147648 -0.043519694 -0.03177824 0.17593934 -0.084888786 -0.039654817 -0.8788369 -0.036541875
0.04564337 -0.019257661 0.06080199 0.10877885 0.012158181 0.09392795 -0.013862539 0.056365892
1.2897937 -0.01486361 -0.048867665 0.047273662 0.069965266 -0.098623596 0.25415316 0.01467332

hidden4.bias f4 [64]
00000000: f522 adbd 7cbd 7e3d 1760 c93d b818 023d
00000010: 621a 833d ebfa 87bd 27e4 54be 3d36 023d
00000020: d309 4bbd 6f4f 203d 524a dabb 7223 1a3d
00000030: cb35 833d 406d 18be ee33 0d3d 281c 82bd
00000040: 4d9a a63c 10c2 a33d dbbe 9a3d 99a1 c6be
00000050: 6cae 2e3d 779b 8ebd 9348 313d f817 ffbc
00000060: 6c7d 363d de0a 39bc 6c24 663d b90e 70bb
00000070: ace1 0f3e 810c 8b3d 5816 733c 75be 563d
00000080: 9582 91bd 923f a43d 1c9a 2c3d a6a1 b5bd
00000090: 3053 b6bd 68e7 cbbc aeae 52bd 5f69 83bc
000000a0: 3e5b 5d3d 72a5 6d3c ad38 853d f405 a63b
000000b0: 8ea8 fcbb 29c7 aa3c 3342 d33d d2cb bc3d
000000c0: 35f1 acbb e540 8e3d 5d02 b73c 1eb8 3fbe
000000d0: 1191 453d eed5 b03d facc bb3c 93d7 28bc
000000e0: 2ded ba3d 4b58 633c 77b9 9d3d 6f05 29bd
000000f0: 88bd d33c e524 8a3c 01f2 27be 0704 f63b
-0.08453933 0.062192425 0.09832781 0.031761855 0.064015165 -0.06639656 -0.20790158 0.031790007
-0.049569916 0.039138254 -0.0066616917 0.03763146 0.064067446 -0.14885426 0.034473352 -0.06353027
0.020337248 0.07995999 0.07555934 -0.38795164 0.04264681 -0.06963246 0.043282103 -0.031139359
0.044553205 -0.011294095 0.05618708 -0.003662987 0.1405093 0.06789494 0.01483687 0.052427728
-0.07104985 0.080199376 0.042139158 -0.088687226 -0.089025855 -0.024890617 -0.05143612 -0.016041456
0.054042093 0.014504777 0.06504951 0.0050666276 -0.007710523 0.02084692 0.10315361 0.09218563
-0.0052777776 0.069459714 0.022339994 -0.18722579 0.04823405 0.08634554 0.022924889 -0.010305303
0.09127269 0.013876031 0.0770139 -0.041264948 0.025847211 0.016863296 -0.16400911 0.0075078043

hidden5.weight f4 [32, 64]
00000000: 0309 c73d 6a40 f03d 93dd 983d 21cb 32be
00000010: f925 d33d a901 d53d ce8d e13f 6a47 4e3e
00000020: f414 80bd 7d86 353e 8541 a73c 9e71 33bc
00000030: 16c9 45bc 3786 203f 09b6 2b3e 38a1 7bbd
00000040: cab1 c93d 6964 903d d676 bcbd 15ec 6740
00000050: 3cc6 14be 96a0 d43d 3b9f 963d 30d1 dc3d
00000060: f303 ddbd 8fa8 cb3d 7720 11bd 4181 a33d
00000070: b244 293d 88b1 333e f734 64bc 0ccb 4bbd
00000080: 4fda afbd 14bc 54bd afbd 3d3c 6535 923d
00000090: 9a34 e5bd 1d9d eabd b1e9 c53c bea1 893d
000000a0: 0aed 353e 12e2 bfbd 4b50 9bbd 8acb eabd
000000b0: 78c6 2a3d 4bca d6bd e087 373e ece6 02be
000000c0: 36de 153e 2883 e33b 754a 29be 1b49 553e
000000d0: c1f9 283e 4bd1 823d 5fb0 b2bd 4e21 a23d
000000e0: 2ecf af3d 9437 ea3d c1b7 d53d 042f d63d
000000f0: 20d7 9a3f 73a7 fbbd dd9a 0c3e 755f 903d
00000100: 5f82 df3d 4393 7b3d 91ed ce3d 8c8c 293e
00000110: 897e 9c3d 5526 003e 040f 73c0 4bdb 0cbc
00000120: b818 a23d 4bb5 513d c43c a9bd ea56 a2bd
00000130: 6f1a 903e 3218 94c0 9512 803d 17a5 8dbe
00000140: 9b65 edbd f1b7 dc3d bd46 953d 15c7 3140
00000150: 9f9e 353d 5445 adbd 78e6 9cbe 74d5 733c
00000160: d312 0d3e 1630 a7be 30c0 49bd e71a b43d
00000170: b217 8abf fad8 2cbe 1954 69bd 89fe 95ba
00000180: d646 c6bd 068a 9fbd a4a4 f4bc 7247 e83d
00000190: 1f57 2a3e 1ee8 603a 4091 c5bd df67 a33d
000001a0: ea86 843b 7769 213e e89d 343a 8d90 f83d
000001b0: 61cc a53d 1c3d a83d e92e 40bd c309 84bd
000001c0: e52b 473d 5caf 643d cb87 6ebd 9a21 4cbe
000001d0: 8c66 99be dae2 81be 23f8 3e3e 6a9d 75be
000001e0: 8ed1 07be 47fe 6fbd 1351 11be 46e4 bdbd
000001f0: 8f20 143f a6f3 313d 200b 4dc0 0f25 98be
00000200: c17e 9f3b 895a 7d3e a445 393d b9f1 dc3b
00000210: 3fdd 993d e1d8 a23d 5dca 6740 dcfa 7a3d
00000220: cfd9 eb3d b0d4 7d3c be3b e6bb 8375 eb3c
00000230: 12ff b9be efe8 ed3e 4a9a 6abd efc5 d8bd
00000240: 3493 4c3e 68fc 18be fd78 32be 8b2c 543f
00000250: 0c57 9bbe a0c5 de3b a3ef 873d 6875 ba3d
00000260: b6e4 05bd 7b63 3e3e 9619 f3bd 04e7 a4be
00000270: 928c f5bb 1324 d83c 44a9 a1bd f0b5 68bc
00000280: d921 babd c753 5d3e e5b7 2ebe 75a5 b13d
00000290: 6b95 b63d 3353 0bbe 9e1a e83b 622f 773d
000002a0: 24bb d43d 9182 72bb 874e dc3d 7173 bebd
000002b0: 4a97 3b3e 0cbc 91bd aac8 db3d 1a96 52be
000002c0: a91b 623e 795b bd3d 73ce eabd cfd9 7c3d
000002d0: 086d a63d cefe e63d 8143 08bd af2b bc3d
000002e0: e641 593e 9900 0c3e c59f 4b3d f6ed 86bd
000002f0: d310 e93f 8110 e93c 633c 633f 68c1 423e
00000300: 548f a3bd aa1e 50bd 2625 183e 43f1 69bd
00000310: 94b6 66be 6177 3cbe 96bd 2840 2968 6fbb
00000320: d394 993d 3b14 dfbe 6ff3 59bd d531 11bf
00000330: 2329 053f befd 00c0 aeec 7fbd 7f72 f23d
00000340: 4399 e73e 84bf 18be b82a f83d cc24 ccbf
00000350: facf 2b3c cc84 233d 13c6 d8be 8683 693d
00000360: 318f 293e 752b 48bf e927 363d c94b 1c3e
00000370: 3976 1e3f 5669 b8be d1c4 c33e 9170 61bd
00000380: ee8b 82bd a8ed d1bf 408c 1c3c d8ef 1dbd
00000390: b738 05bf d3b5 90bc d4dd c3bd b7c5 7b3e
000003a0: d9dd c23c 6d99 df3d 09f2 f33d 8f89 99bd
000003b0: e78f 9bbe ac87 b9bc 02a8 413e 6d55 363e
000003c0: 1ee8 673d 85e4 a9bf 0243 d43c f77b 5fbd
000003d0: 030c b0bf 1e4b 41bf 87d8 b63d 755a b33f
000003e0: c8ca d2bf 6a9f cbbe e6b4 1dbf 1b28 413d
000003f0: 7214 1e3d 83c4 73bd e49c 0c3d b4f2 7dbf
0.09718516 0.11731036 0.07464137 -0.174603 0.10309977 0.10400707 1.76214 0.2014443
-0.062539965 0.17727084 0.020416984 -0.010952381 -0.012071868 0.62704796 0.1676866 -0.061433047
0.09848364 0.07050402 -0.09202354 3.6237843 -0.14528745 0.10382192 0.073545896 0.10782087
-0.10791769 0.099442594 -0.03543135 0.079836376 0.04132528 0.17548192 -0.013928643 -0.049754187
-0.08586561 -0.051937178 0.011580869 0.071390904 -0.111916736 -0.11455748 0.024159284 0.06720303
0.17766204 -0.09369291 -0.07583674 -0.11464603 0.04169318 -0.10487803 0.17922926 -0.12783402
0.14635548 0.0069431253 -0.1653231 0.20828669 0.16501524 0.06387576 -0.08725046 0.079165086
0.08584438 0.11436382 0.10435439 0.10458186 1.2096901 -0.12287798 0.1373095 0.07049457
0.10913538 0.061419737 0.10103906 0.1655752 0.07641322 0.12514623 -3.7977915 -0.008597205
0.07914871 0.051198285 -0.08263543 -0.07926734 0.28145167 -4.6279535 0.06253544 -0.27665016
-0.11591645 0.107772715 0.07288883 2.777776 0.044340726 -0.08460489 -0.30644584 0.014882434
0.13776712 -0.32653874 -0.04925555 0.08794194 -1.0788481 -0.16879645 -0.056964967 -0.0011443655
-0.0968148 -0.07789998 -0.029863663 0.11341752 0.16634797 0.000857951 -0.09646845 0.07978796
0.0040444033 0.15762888 0.0006889985 0.12136946 0.08095623 0.08214781 -0.046919737 -0.064471744
0.048625845 0.0558313 -0.05823497 -0.19934693 -0.2996105 -0.25368387 0.18649344 -0.2398583
-0.13263533 -0.058592107 -0.14191084 -0.09272055 0.5786218 0.043445252 -3.203804 -0.29715773
0.004867405 0.24741568 0.04523243 0.006742683 0.075129025 0.079515226 3.6217263 0.061274394
0.11516153 0.015492603 -0.007026165 0.028742557 -0.36327416 0.46466777 -0.057276048 -0.10584628
0.19978029 -0.14940035 -0.17428966 0.8288047 -0.3033985 0.006798461 0.06637504 0.09104425
-0.03268882 0.18592636 -0.118701145 -0.322075 -0.007493564 0.026384389 -0.07893613 -0.0142035335
-0.09088487 0.2161399 -0.17062338 0.086741365 0.08915218 -0.13605957 0.007083251 0.060347922
0.10387257 -0.0037004093 0.107571654 -0.092993625 0.18319431 -0.07115945 0.10731633 -0.20565072
0.22080864 0.09245963 -0.11465158 0.061731156 0.08126265 0.11279069 -0.0332675 0.091880195
0.21216545 0.13672103 0.049712915 -0.06588356 1.8208259 0.028450252 0.8876402 0.19019091
-0.07986322 -0.050810494 0.14857921 -0.05711485 -0.22530586 -0.18404914 2.6365714 -0.003653059
0.07499089 -0.43570122 -0.053210672 -0.5671666 0.52015895 -2.0154872 -0.062481575 0.11838245
0.45234117 -0.14916807 0.12117523 -1.594873 0.010486597 0.039921567 -0.4233862 0.057010196
0.1655853 -0.7819131 0.044471655 0.15263285 0.61899143 -0.36017865 0.38236097 -0.055038992
-0.06374346 -1.6400652 0.009554923 -0.03855881 -0.52039665 -0.017664826 -0.09563795 0.24587141
0.023787426 0.109179355 0.11911399 -0.0749694 -0.30383226 -0.022647701 0.18911746 0.17806025
0.05661785 -1.3272864 0.025910858 -0.05456158 -1.3753666 -0.75505245 0.08928018 1.401198
-1.6468134 -0.3977006 -0.61604154 0.04715739 0.038593717 -0.05951358 0.03432931 -0.9919846

hidden5.bias f4 [32]
00000000: 83e2 933c 1713 1e3c 76ba 953c fda3 b2be
00000010: d98b a13d 572e f53b 08dd 023d b2bf ea3d
00000020: ec2a d83d 55d3 0fbd eac6 61bc db1b 09bd
00000030: 3ace 68bd b417 96be 47ec 0dbf 8bbc 983d
00000040: d036 d5bd 5bf6 06bc 12c1 113e b952 473d
00000050: 869f f23d 4101 8fbd d7fb 983d 783c bbbd
00000060: 3a25 fcbd e8dd 1dbd 9555 07be 5afd 7b3d
00000070: cefd b6bd 6240 8e3d 7ce6 a3bd c97e a3bc
0.018052345 0.009648106 0.018277388 -0.34890738 0.07888002 0.007482331 0.031949073 0.11462344
0.10555062 -0.03511365 -0.013780335 -0.03347383 -0.056837298 -0.2931496 -0.55438656 0.07457837
-0.10410845 -0.008237447 0.14233807 0.048662875 0.11846833 -0.06982661 0.0746991 -0.09142393
-0.12311788 -0.038541704 -0.1321624 0.06152091 -0.08935128 0.06945874 -0.08002946 -0.019957917

out.weight f4 [2, 32]
00000000: 13fe 41be faa9 6240 2f18 59c0 3056 f540
00000010: d522 0a3e 4792 343d d218 923f a6f6 363e
00000020: a668 713e 5c9f 8abe 4929 c23d a378 893e
00000030: 352e 0a3c 8f4e a3be a556 4f40 7fac 73be
00000040: 3083 b93d bf62 cc3e ce27 da3d c73d 82be
00000050: 1c32 6b3e 5c6f 83c0 08b4 cdbd 6246 dbbd
00000060: 59cd 23c0 bdcb b93c 5746 a5bf db52 7e3e
00000070: 6586 99bf 0dc7 803e e474 0bbe 2fd1 04be
00000080: 59b9 7c3e 4112 65c0 db0d 5540 3bdc f7c0
00000090: f75a 83be 22b4 91bd 2916 97bf f592 7abe
000000a0: 39e3 e5bd 6427 ce3d 1b56 81be f920 4abe
000000b0: 68ac afbd cf8f f53e 4276 44c0 2fb9 343d
000000c0: fe49 c7bd 760c aabe f9a9 a6be d063 e43d
000000d0: eb9c 6bbd 2696 8340 c958 153e c387 08be
000000e0: 0d2a 2a40 4021 6c3e 9ca7 a43f c17c 25bd
000000f0: 3f14 8e3f 483e 6bbe d2e7 68bd 6bf0 113e
-0.18944578 3.5416245 -3.392101 7.666771 0.1348985 0.044084813 1.1413825 0.17867526
0.23575076 -0.27074707 0.09480531 0.2684985 0.008433868 -0.31895873 3.2396634 -0.23796271
0.09058225 0.39919087 0.106521234 -0.25437757 0.22968334 -4.1073437 -0.10044104 -0.10706784
-2.5594084 0.022680158 -1.2912091 0.24836294 -1.1994139 0.25151864 -0.13618809 -0.12970422
0.2468008 -3.5792391 3.3289707 -7.7456336 -0.25655338 -0.07114436 -1.1803638 -0.24470122
-0.1122498 0.10066107 -0.25261006 -0.1973914 -0.08577806 0.4796128 -3.069718 0.044121917
-0.0973091 -0.33212632 -0.32551554 0.1115185 -0.057522696 4.1120787 0.1458465 -0.13333039
2.6588166 0.23059559 1.286365 -0.040402178 1.1099929 -0.22972977 -0.056861706 0.14251868

out.bias f4 [2]
00000000: fb7a 963d 7179 2abe
0.073476754 -0.16647889
