script/Classify/checkpoint.pth (torch_old, 348928 bytes, 12 tensors)

hidden1.weight f4 [64, 64]
00000000: 850a 03ba f0fc 033d 87df 8ebd e0ce dbbd
00000010: 257d 81bd 56f8 57bd a0e2 223d e07d 923d
00000020: ad10 f1bc 3954 893d 6a16 fbba ac6d f63a
00000030: 2c71 35bd 50c7 a83d 1fe9 203c 93af 0abd
00000040: f196 f8bd af58 e43d bd6a 143d 4217 883d
00000050: 12d9 b03d e35d 90bd bcd2 f13c c507 ecbd
00000060: 711b d63d 61a8 173d 1e4e 9c3d 38ce f23d
00000070: e73a 01be 4216 733d 5053 8b3d 60ad ea3d
00000080: eeba bf3d fa65 a73c 1983 90bd 3e1a 4b3c
00000090: dca0 96bc 44ac 5f3d f497 e73d 0cdb 85bc
000000a0: 51ad cdbc dd81 b3bd 6424 c6bd b2c1 213c
000000b0: 6787 0fbd 0149 a33d 61a6 733d 920a c6bd
000000c0: fc6f 8f3d 53bd 443d faef 7b3d aecb b8bd
000000d0: cfa8 edbc 6a15 5ebd d466 ddbd d882 6c3c
000000e0: af3b cd3d 12f7 8b3c 454f 633d 2ede 2c3c
000000f0: 876b aa3d fd9b 503d e433 dbbd bcd4 123d
00000100: 7701 453d be52 01be e09d 40bb 31f4 8ebd
00000110: 3184 bf3d 1147 013e 9548 b6bd a47e 283d
00000120: 3a5f f8bd cbb7 0c3d 0081 c23c c2cf 1f3b
00000130: 877d ebbd 1ddb e63d 7644 bfbc b06f cfbd
00000140: acc1 d33c 52d6 d1bd cc2a c9bd 063c f6bd
00000150: 9ef2 a53d 693c fc3d 3df6 e43d c64c 9b3c
00000160: 2ba5 9a3c a702 173d 079d e2bd 5e2a fb3d
00000170: bb6d cd3d 48cc 64bd 8015 013e 0227 d5bd
00000180: b73a 97bd 0873 76bc c268 dabd 76db c9bc
00000190: 742c 0c3c 5a98 dcbc 753b 1abd c884 98ba
000001a0: 4901 8cbd 9465 a33d 12de 5abc 699a 7cbd
000001b0: 9cf1 c13d 4327 00bd 346b 3e3d 5024 0bbb
000001c0: f978 333d 3066 3abd d420 f3bd da7e 8fbd
000001d0: 7069 b63d fe01 093d f222 8cbb bbe0 e33d
000001e0: eca5 39bc b72a cf3d 10f1 6dbd d30c ddbc
000001f0: 383a e1bb 5137 8c3d 69b6 913d 15e4 aa3d
00000200: 8e6f 2b3c 3c47 e63d 50bc c5bd c7a6 1e3d
00000210: 585e 373c 449b 9a3c 6ad1 bebc 3ad9 e33d
00000220: 8e6f 2d3d 0636 a63c 5d9f 88bd c5bf 61bb
00000230: 1de6 b03d bf68 a93c 50fd f93c 6675 f7bd
00000240: f121 d5bd 9dc0 93bd 7c28 863d a367 fbbd
00000250: 0f66 f4bc 9f2d fe3d 03fa 53bd 0dbe 94bd
00000260: 803c 7abb 1b38 a93d 7045 c03d 4007 0ebc
00000270: 9048 fc3d 72b8 9cbd 3f70 fc3d f944 21bd
00000280: 934f c43d d4c2 c4bd c6aa 493b 5330 c93c
00000290: d9db d13d 69d8 8dbd b415 68bc 989d cc3c
000002a0: ea4f f43c e3f3 d8bd 57ad 5fbd d202 e83d
000002b0: 080d 88bd 971c 35bd eafd 9d3c 7b50 adbd
000002c0: 94c1 e33d 65f4 a03d ecb3 22bd 4830 b1bd
000002d0: 50bf 1f3d 1026 24bb a406 46bd 1818 563b
000002e0: ae75 7a3d 2ed8 a33d ba0e a73c b96a d3bd
000002f0: 8bc1 5b3d d5ff 733b 32a4 d23d 7f96 92bc
00000300: 1865 a0bc dc43 b73d 20fe 6d3d 1836 91bc
00000310: b8fe abbd e049 a63d 29f2 f03d a973 583d
00000320: 1d86 10bc fff1 e43d e9e8 683c 2b83 4fbd
00000330: 651f 183d 9596 fbbd 2264 cf3c 9751 b83d
00000340: a6da 913d 193a 47bd e9d9 a03d 6c12 0a3c
00000350: e082 8d3d f19a 74bd 6130 013d 0a15 20bd
00000360: 13fa ae3d a9b7 5ebd 636b e8bd 362c b2bd
00000370: 8851 6c3d c169 9abc 3cdf f83c c8ec 04be
00000380: 954c 55ba fef6 b7bd 2e5c 5abd b0df d2bc
00000390: eb7f efbc b57c a13d e7c8 66bd 0b3f c0bb
000003a0: 2407 dbbd 1b4f 57bd 2066 e93c cabd 59bd
000003b0: 579f 983c f5b4 eb3d 39d3 e53c 5394 c93d
000003c0: 69d6 bf3d a895 afbd a059 e73c d95c 7d3d
000003d0: 9646 bc3c 9c61 b03c 405a 993d f801 dfb9
000003e0: a465 adbd 064c 323b e8bf 2d3d 7711 2d3c
000003f0: f28a c93c 0d99 de3d 986c 353d 43dd 463d
-0.0004998821 0.032223642 -0.06976228 -0.10732818 -0.063226976 -0.052727066 0.039766908 0.07152915
-0.029426897 0.06705517 -0.001915646 0.0018800995 -0.044297382 0.08241141 0.009821205 -0.033858847
-0.12138165 0.111497276 0.036234606 0.06645061 0.08635153 -0.070491575 0.029519431 -0.115249194
0.10454453 0.037025813 0.07632087 0.11855739 -0.12620126 0.0593474 0.06803 0.1145885
0.09361826 0.020434368 -0.07056255 0.012396393 -0.01838725 0.054607645 0.1130828 -0.016339801
-0.025107058 -0.08765004 -0.0967491 0.009872841 -0.03504124 0.07972909 0.059484843 -0.09669985
0.07003781 0.048032116 0.061508156 -0.09023224 -0.029011158 -0.05421964 -0.108106285 0.014435492
0.10021149 0.017085586 0.05549552 0.010551019 0.083212905 0.050930012 -0.10703257 0.03584741
0.0480971 -0.1262922 -0.0029390976 -0.069801696 0.093513854 0.12624766 -0.08900563 0.0411364
-0.12127538 0.034354966 0.023743153 0.0024385308 -0.11498552 0.11272261 -0.023348074 -0.101287246
0.025849186 -0.102459565 -0.09822616 -0.12023167 0.08102916 0.1231621 0.11179779 0.018957507
0.018877586 0.036867764 -0.11065107 0.1226394 0.10030695 -0.05585888 0.12605858 -0.10407831
-0.07384246 -0.015042074 -0.10664512 -0.02464078 0.00855552 -0.026928116 -0.03765436 -0.0011636252
-0.068361826 0.07978359 -0.01335861 -0.061670695 0.094699115 -0.031287443 0.046488956 -0.002123136
0.04381654 -0.04550761 -0.11871496 -0.07006617 0.08906829 0.033449166 -0.0042766267 0.11126848
-0.011331063 0.10115569 -0.058091223 -0.026983654 -0.0068733953 0.06846488 0.0711487 0.083442844
0.010463608 0.11244056 -0.096550584 0.03873327 0.011191927 0.018872865 -0.023293216 0.11125417
0.042342715 0.020289432 -0.06671021 -0.003444658 0.086376406 0.02067983 0.030516297 -0.12082939
-0.104068644 -0.072144724 0.065506905 -0.122756265 -0.029833822 0.12411045 -0.0517521 -0.07262812
-0.0038183033 0.082626544 0.09388244 -0.008668721 0.12318528 -0.07652368 0.12326097 -0.039372418
0.0958549 -0.09607473 0.0030771955 0.024559176 0.10247011 -0.069260426 -0.014165331 0.02497749
0.029823262 -0.10593393 -0.05460867 0.11328663 -0.066431105 -0.04421672 0.019286115 -0.08462616
0.111209065 0.078591146 -0.039722368 -0.08651787 0.03900081 -0.00250471 -0.048346177 0.003266817
0.061147384 0.080002174 0.020392764 -0.1032309 0.053651374 0.0037231345 0.10285224 -0.017894028
-0.019579455 0.0894849 0.05810368 -0.01772599 -0.08398193 0.08119559 0.117649384 0.052844677
-0.008821038 0.111789696 0.014215686 -0.0506622 0.037139315 -0.122845806 0.025316302 0.08999937
0.07121782 -0.04863939 0.07854063 0.008427244 0.06909728 -0.059718076 0.03154028 -0.039082564
0.085437916 -0.05437437 -0.113486074 -0.08699839 0.05769494 -0.018849256 0.030379884 -0.1298095
-0.0008136717 -0.08982657 -0.053310566 -0.025741428 -0.0292358 0.07885114 -0.05634394 -0.0058668903
-0.10694721 -0.052565675 0.02849108 -0.053159513 0.018630667 0.11509124 0.02805482 0.09842744
0.09367067 -0.085734665 0.028240979 0.061856125 0.022982877 0.021530919 0.07487917 -0.0004253534
-0.08466652 0.0027205958 0.042419344 0.010563246 0.024602387 0.10869036 0.044293016 0.048550855

hidden1.bias f4 [64]
00000000: b50d 003e 3324 c43d 112a 41bd f696 193c
00000010: 8603 3d3a ee05 1f3d 21a4 8f3d 1af7 db3d
00000020: d554 393c f2fc c1bd e919 993d 6ede babd
00000030: 1cea 873c 1c46 a0bc 7236 983d 3ab9 65bd
00000040: f515 e0bd 8fdb 38bc 1b71 4a3d 00ef a83d
00000050: 299b 1cbd ccaa 5fbd cca7 59bc 8946 da3d
00000060: afc3 103c 23c4 a4bd 5ded 703c c885 3cbd
00000070: f102 fd3d 01bb 96bd 7d7b fb3d 4228 17bd
00000080: a9fa 5a3c 0983 313d 100a 863c 9efd 843d
00000090: 10fc 6d3d 6f3a a63d a111 f93d 3257 a0bc
000000a0: f5a3 003d 223f 2ebc 2301 b0bc 9a90 8d3d
000000b0: f2ed a6bd e9d7 f4bd dea4 f2bb 2996 db3d
000000c0: 034c 91bd 7bb9 123b 06b1 ba3d 2856 033d
000000d0: 86b2 c93d 842e a3bc 6dfb 8f3d 3047 f93d
000000e0: 7a56 68bd d561 e23d 9700 b93d 9899 e83d
000000f0: 8d4d e33d 5a08 05bc 7502 9fbb 8ce5 e6bc
0.12505229 0.09577217 -0.04715926 0.009374371 0.0007210303 0.038824014 0.07013727 0.1074049
0.011311729 -0.094720736 0.07475645 -0.09124456 0.016591124 -0.01956468 0.074322596 -0.05608485
-0.10941688 -0.011282816 0.049424272 0.08248711 -0.03823391 -0.054606244 -0.013284635 0.10657985
0.008835717 -0.080452226 0.014705029 -0.04602602 0.12354077 -0.07359887 0.12279413 -0.036903627
0.013365426 0.043337855 0.01636222 0.06493686 0.058101714 0.08116614 0.121615656 -0.019572828
0.03140636 -0.010635169 -0.021484917 0.06912346 -0.08150853 -0.11955244 -0.0074049076 0.10722
-0.07094576 0.0022388387 0.09115796 0.032064587 0.09848504 -0.019919641 0.070303775 0.12171781
-0.056723095 0.11053816 0.09033316 0.11357421 0.11098776 -0.008119667 -0.004852588 -0.028185628

hidden2.weight f4 [128, 64]
00000000: 04da 4e3d 661a 80bd 86d7 00bd 3a39 bb3d
00000010: 5940 333d f4c7 d0bb 77d2 bcbc 4953 c3bd
00000020: b950 babd 7143 82bd 7895 38bc 69a5 1e3d
00000030: 6ab0 b33c 6b30 f5bd aa80 f8bd 3d68 9bbd
00000040: 75e3 bdbb f654 583c 50a8 953c b907 00be
00000050: ee2d aebd 6c0a ddbd 39f3 9b3d 1c49 26bd
00000060: 0026 f4bd 21ca c13d bef1 39bd 4e6e 43bd
00000070: 4ceb 823d d085 ba3c 44dc 693d 9448 6abc
00000080: eba1 b3bd 9034 5e3c 7ead 883d bb30 05bd
00000090: af26 95bd 8c48 c43d 0389 e63d f48a b6bd
000000a0: 9aa6 9fbd 642d 78bc b08d adbc 3466 5c3d
000000b0: 92c2 b03d 26cc 903d d601 ebbd e9a4 8cbd
000000c0: c2ec 563c a76a 063c ad03 d33c fbb2 a4bc
000000d0: 0c29 d1bd 7482 703d 3f4a e5bd 35db c93d
000000e0: 3ea2 d6bd 86ed 79bd 382d b73d 38af 47bd
000000f0: 575e d73d 96e1 30bb 9341 f4ba 67d1 dbbc
00000100: 1dc0 553d 4045 da3d 8cab f0bd 0fab e7bd
00000110: 76fa 423c 55e3 693d 6d19 893d 8185 f7bd
00000120: b595 debd 8c9f 04b9 d7db 06bd ac5e c23c
00000130: 5d52 143d 7fb2 5d3d 059b cbbc 4942 fcbd
00000140: 5030 8e37 61a6 c33d d9f8 e3bc 2fac 913d
00000150: e84f ea3d affc a93d 747e fb3d 110c bdbd
00000160: e5c8 6c3d 0ecd f33d aa0a bcbd 2e40 d4bd
00000170: 65ef dcbd 46a6 d2bd bb36 29bd 3910 e33d
00000180: 1178 2c3a 9bd3 f73c a693 90bd 165c febd
00000190: a720 84bd 3405 d4bd c78f db3c 6cad 42bc
000001a0: 0e2f 06be a82d 5dbd 5ad9 06bc 5bb7 7b3d
000001b0: 11d3 5cbd 7b9a 9abd e42e 123d 4b37 b33d
000001c0: fc35 71bd 182e ef3d 58f0 f53d 4193 76bd
000001d0: 80b5 bc3d 6688 50bd 5739 e4bd 9a91 cf3d
000001e0: 3596 c73d 8e5f a03d 7491 633d 57a4 f3bd
000001f0: ea57 bc3d 750e 093c a2cd b2bc 36c6 8fbd
00000200: ce04 be3d 0942 de3c 1fb3 9ebd bf24 dcbd
00000210: ba8a dc3c dfb5 a8bd ca3d 963d 114c 8f3d
00000220: be1e cabd 28d7 a23d aeef d93d 099c 27bd
00000230: 1799 bf3d e687 383d 58a9 d03c ef6c 0abd
00000240: 8f6d adbd 127f e33c 19a3 0bbd 2561 93bd
00000250: 9ac3 e4bd 03a2 07bd e056 b93b 664e c53d
00000260: 66c7 f5bd 855e 66ba 0937 0ebd 3eb8 d93b
00000270: 961a d43d e07b 393d 520b 35bd 75bd c83d
00000280: aaa8 043e ffab 6c3c b460 4e3d d9dd 8e3c
00000290: a5fc 61bd 39e5 6dbd 6f3d cc3d 706b fc3d
000002a0: 0d10 dabc af17 c2bd 5196 bd3c cc94 9cbd
000002b0: 11ce 273d 9a2e 9f3c 43f7 8d3d 6edc d53d
000002c0: ce14 c33d 1c15 a03c 8aba 7bbd 6920 9ebc
000002d0: ea52 83bc 6cb8 863d 3556 6b3d 0eea d93c
000002e0: 4a52 063d 75c9 12bd ea4c 98bd 6a95 b63c
000002f0: 5e80 34bd 6602 00bd 7683 a93d 3860 24bd
00000300: 16c4 33bd bc0b 54bc f798 ea3d 12e1 273d
00000310: 0ad9 59bd d81b e5bc cf46 dc3d 080d e33d
00000320: ce75 b33c 423c 263c 60f3 ba3d 18f6 dd3d
00000330: 61ab b0bd 043b eb3d dbea 96bd 1171 92bd
00000340: 37be fabc 9589 7ebd 2b72 74bd 930b ddbd
00000350: 126c 94bd 3e65 dcbd 17a4 b3bd 3275 283d
00000360: 0724 14bd f867 553d f3c0 11bd d788 9dbd
00000370: 5504 423d 76f5 d03d 8553 fb3d e5fc 273c
00000380: 5be9 8dbd 5f98 23bb 6b74 fe3d e7b6 46bc
00000390: c5b0 b1bd 5948 e7bd 4efc c03d 7506 6bbd
000003a0: 4c30 6d3c 5556 c93d 1275 05bd aa14 d23c
000003b0: 5f11 d2bd 366c b93d 2568 283d 34d3 b63c
000003c0: 849a 713d 2758 b6bd ac9e 2d3c 6e81 1bbc
000003d0: 913d aebd 8b3e ca3d 7774 8f3c 14bb 88bb
000003e0: a586 be3d 0829 3e3d 9099 853d 96a9 e7bd
000003f0: dd33 3bbd 25ee 0ebd a2af b73d dd2a 93bc
0.050500885 -0.06255035 -0.03145554 0.091417745 0.04376254 -0.0063714925 -0.023049576 -0.0953737
-0.09097428 -0.0636052 -0.011266105 0.038731966 0.021934707 -0.119721256 -0.12133916 -0.07588241
-0.0057949373 0.01320385 0.018268734 -0.12502946 -0.08504854 -0.107930034 0.076147504 -0.040597066
-0.119213104 0.09462381 -0.04539656 -0.047712617 0.063925356 0.022768885 0.057094827 -0.014299531
-0.08771118 0.013562337 0.06673716 -0.032517176 -0.07282769 0.0958415 0.11256602 -0.08913222
-0.077954486 -0.015147541 -0.021185726 0.053808406 0.08630861 0.07070188 -0.114749596 -0.068673916
0.013117971 0.008204139 0.025758589 -0.020104876 -0.10212907 0.05871816 -0.11195802 0.098562635
-0.10480164 -0.061017536 0.08944172 -0.048751086 0.10516041 -0.0026989928 -0.0018635265 -0.02683325
0.052185167 0.1065774 -0.1175147 -0.11311924 0.011900535 0.057101566 0.06694303 -0.12086011
-0.10868398 -0.00012647937 -0.0329245 0.023726784 0.03621136 0.054125305 -0.024854193 -0.123173304
1.6950216e-05 0.09553219 -0.02782862 0.071129195 0.11441022 0.08300149 0.122799784 -0.09230817
0.057808775 0.119043455 -0.091817215 -0.10363804 -0.107878484 -0.102856204 -0.04131196 0.110870786
0.00065791706 0.030252269 -0.07059412 -0.12419908 -0.064515404 -0.10352555 0.026801957 -0.011882167
-0.13103887 -0.05399862 -0.008230532 0.06145416 -0.053912226 -0.07548996 0.03568925 0.08750781
-0.058889374 0.116787136 0.120087326 -0.060199026 0.09214306 -0.05091133 -0.11143749 0.10135193
0.097454466 0.078307256 0.055558637 -0.1189658 0.09196456 0.008365263 -0.021826569 -0.070202276
0.0927826 0.027131097 -0.077490084 -0.10749196 0.026921619 -0.08237814 0.07336004 0.069969304
-0.09869145 0.07951194 0.106414184 -0.04092029 0.093553714 0.045051478 0.025471374 -0.033795293
-0.08468162 0.027770553 -0.03409109 -0.07196263 -0.111701205 -0.03311349 0.0056561083 0.09634094
-0.12000923 -0.0008787888 -0.034720454 0.006644278 0.10356633 0.045284152 -0.04420025 0.09801761
0.12954965 0.014445304 0.050385192 0.01743977 -0.05517258 -0.058079932 0.09972655 0.123251796
-0.026618982 -0.094771735 0.023142966 -0.07645568 0.040968005 0.019431401 0.06931927 0.10442434
0.095254526 0.019541316 -0.061457194 -0.019302564 -0.016030747 0.065781444 0.05745526 0.026600864
0.03279332 -0.035836656 -0.07436545 0.022288043 -0.044067733 -0.031252287 0.08277027 -0.040130824
-0.043888174 -0.012942251 0.11454957 0.04098613 -0.0531855 -0.027967378 0.10755693 0.1108647
0.02190676 0.0101462025 0.09128451 0.10837954 -0.08626438 0.11485866 -0.07369014 -0.07150472
-0.03060828 -0.062142927 -0.05967919 -0.10793223 -0.07247175 -0.10761498 -0.08771532 0.04112739
-0.03616717 0.052101105 -0.0355844 -0.07692116 0.047367413 0.10203068 0.122717895 0.010253166
-0.06929275 -0.0024962646 0.12424549 -0.012128568 -0.08676294 -0.11293096 0.09423123 -0.057379205
0.014476847 0.0983092 -0.03258235 0.025644619 -0.102572195 0.09053843 0.041114945 0.022317506
0.05898525 -0.089035325 0.010596912 -0.009491308 -0.085078366 0.098752104 0.01751159 -0.004172692
0.09303025 0.04642585 0.0652343 -0.11311643 -0.045703758 -0.03489508 0.08969046 -0.017964775

hidden2.bias f4 [128]
00000000: c387 19bd ef15 d63d 382e f83d 1966 76bc
00000010: cf49 9c3d 010d 44bc 0ba1 a6bd a457 51bb
00000020: 8e8e b6bd f47a 97bd 88fd 693c d1ba df3c
00000030: a828 3d3d 3076 edbd 2d3c 62bc 1358 ad3d
00000040: e980 e33d e07a e93d 1ff9 de3d 3292 e93d
00000050: 4943 71bd 6ad0 a53d c682 ebbd 2b10 e63c
00000060: 46a1 e2bd d71c f53d 865d e03d 1a00 9fbd
00000070: 4a90 b5bd 826c 453d 1d53 aa3d 2d40 8b3d
00000080: c601 4abc f111 963d 90bc 913d baa4 4bbd
00000090: f858 ecbd 45fd 553d 0878 44bd 7294 c83c
000000a0: edb7 a9bc ca3b 013e e445 febd 4766 45bd
000000b0: 3aa5 cbbd 4139 0b3c fcbb e3bd b6fa a1bd
000000c0: 10eb abbd b355 403b 2e17 a7ba 4bfc 8cbd
000000d0: c15c 9e3c 6075 a0bd 9afd b33d 3e94 64bd
000000e0: 39a9 ab3c b1b4 a6bd c98e 9e3d dd4f 623d
000000f0: eda6 de3d 4ad2 eabd 0d0d e43d 3269 563b
00000100: ecfd eb3d 5ae2 26bd b5d2 923d a1e6 cb3d
00000110: bc89 f3bd ef41 dc3d cb86 b6bd c3c5 803d
00000120: 5bbf 723d ae5e ce3d 5a7b ddbb ede6 083c
00000130: d835 003d 44ee cdba dafc bc3d c2dc 603c
00000140: 7f8f 893d 64d9 103d 2ce6 a4bd 2727 2bbc
00000150: 1b2e 2b3c f995 e5bd 04ab 3d3d d7ea 1d3d
00000160: 7a68 f2bd 23b4 663d 8622 b1bd baca ae3d
00000170: 4f43 38bd dc65 f93b d9d9 fd3c 74b0 f33d
00000180: ff83 873c c851 dbbb dd57 85bd 46cf 683c
00000190: 7e1b 343d e55c 5c3b eb0d 4cbd 6cf8 cfbd
000001a0: 0cd6 3dbb e775 fc3d dea8 74bb 208c bfbd
000001b0: d177 943d 5143 8f3d 37e3 cabd 8cbe 3ebd
000001c0: 76ee 2e3d 510c f23d 34c9 7d3d e46f 6fbd
000001d0: e546 a1bd ffbb 003d fdb7 213d f11d 95bd
000001e0: 1c82 d2bd 772e 403d a80b 93bd 75b8 1ebd
000001f0: c55e 713c 3a0a 9ebd 6080 9339 92b3 023e
-0.037482988 0.10453402 0.121181905 -0.01503899 0.07631265 -0.011965991 -0.08136185 -0.0031943107
-0.08913909 -0.07396498 0.014281638 0.02731076 0.04618135 -0.11594808 -0.013808292 0.084640644
0.11108572 0.1140039 0.1088736 0.11404838 -0.05890206 0.080963925 -0.114995524 0.028083881
-0.11065917 0.119683914 0.10955338 -0.07763691 -0.088654116 0.048199184 0.08316634 0.0679935
-0.012329524 0.07327641 0.071160436 -0.049717642 -0.11540407 0.05224349 -0.047966033 0.024484847
-0.020717585 0.12620464 -0.12415674 -0.048193242 -0.09943624 0.008497537 -0.111198395 -0.079091474
-0.08394444 0.0029347956 -0.0012747997 -0.068840586 0.019331338 -0.078348875 0.08788605 -0.055805437
0.020954715 -0.08139933 0.07742078 0.055251945 0.10871682 -0.11465891 0.11135302 0.003271651
0.11523041 -0.04074321 0.071690954 0.09956098 -0.11891505 0.10754763 -0.089124285 0.0628772
0.059264522 0.100766525 -0.0067590894 0.008355838 0.03130135 -0.0015711267 0.09227915 0.013724508
0.06716823 0.03536357 -0.08051714 -0.010446346 0.010448004 -0.11210246 0.04630567 0.03855404
-0.118363336 0.056324136 -0.08649163 0.08534761 -0.044986065 0.0076110195 0.030987667 0.1189889
0.016542433 -0.0066930987 -0.06510899 0.014209574 0.04397153 0.0033624705 -0.04981796 -0.101548046
-0.0028966693 0.123271756 -0.0037332098 -0.093528986 0.07249416 0.069952615 -0.09906619 -0.04656844
0.042707883 0.118187554 0.06195946 -0.058456317 -0.0787485 0.031429287 0.039482106 -0.072811015
-0.10278723 0.046919312 -0.07179958 -0.03875013 0.0147320675 -0.07716794 0.00028133672 0.12763813

hidden3.weight f4 [256, 128]
00000000: 68f5 b6bd 6e6f 4c3d 64c9 a73d 8130 e8bc
00000010: 3dad 81bd d383 79bb 58f3 7fbd d299 b5bd
00000020: dcca d63c ae9d 92bc e1b1 af3c 7ad0 44bd
00000030: 8d24 5f3d 8081 36bd 54cd 97bd 070a fabc
00000040: db1c 0fbc 72b1 ac3c 10a2 14bd 0232 48bc
00000050: 61ea 5dbd b7f5 07bd 50c8 51bc 9868 933c
00000060: 4a28 7d3a 9b51 91bd dbbd 5bbd 5c40 b2bd
00000070: 5cf8 133d 59f0 0b3d 4a3a b93d 506f 24bd
00000080: adc4 243d 54f1 62bd d5b4 a53d 431c 3bbd
00000090: d90f 943d f4e3 bc3d 8cbf 8d3d 4a13 513d
000000a0: d2d9 e1bc 6286 823d 84e6 d83c 7c39 98bd
000000b0: fe9c 183d b022 2fbc 55f3 8b3d 7b59 133b
000000c0: e512 95bd 3e4b a0bc a3c6 9e3d 2911 393d
000000d0: 66cf b23c 049f b5bd e124 4b3d ab49 5d3d
000000e0: ec88 76bd 19ce 95bd 1fb3 1bbd 3522 93bd
000000f0: b095 833d 5850 92bd 925c 7a3d 7981 91bd
00000100: ff0e de3c f82a 36bd 0118 53bc fa53 9c3d
00000110: d2a0 d53a c96d 6fbd 122a f33b 4aef 9f3d
00000120: e513 553c 44ac cc3c 9277 493d 1dc5 77bc
00000130: 508c 17bd 0683 b43d 4374 723d e626 323d
00000140: d4ce 8c3d f7d9 daba 7453 f2bb 4e46 8b3d
00000150: d63f 2dbd 9e91 27bd ac4d 453c f782 993c
00000160: 5fd1 853d b2ec 0abc 5344 97bd 6b9c 79bd
00000170: 78b4 913d 3f06 943d 8f16 5a3d d38a dc3b
00000180: 018b 97bc 8060 d9bb d9ef 3d3d b0ad 303b
00000190: a220 8e3d ce68 56bc f85a d2bb 5495 f3bb
000001a0: 3806 2abd 0923 9ebd fbbe 19bc 6693 a1bc
000001b0: 12e8 cdbc 0e45 313d e41e af3d ae4e 46bd
000001c0: 253c 453c 6788 9d3d b70e 9a3d 8821 0abc
000001d0: 3987 09bc f173 4bbd 7a7a 9f3d 0b91 0dbd
000001e0: 946d 903c 82dc 44bc 0ad0 37bd d59c 4c3d
000001f0: 0353 37bd f0f5 87bc 4215 dfbc cf9b c63c
00000200: ded1 8ebd a820 693c 38fb 68bd bfc1 4fbc
00000210: d153 4ebd 9aac 93bd 5788 1d3d fabd 9ebd
00000220: 161b 563d ae12 ee3c 1c5e 4d3d 13d1 55bc
00000230: 35cd d9bc d5a5 213d 7e70 89bd 5e31 7ebb
00000240: b42a 873d a0f7 48bd 85da 533d 0c5c b83c
00000250: 7da0 7cbd aba5 d73c a724 21bd 7e83 ffbb
00000260: 0917 84bd e3c3 95bd 8191 acbd 2c63 193d
00000270: 9679 abbd 29c6 453c 360f 93bd 824a 753c
00000280: 8e87 a9bc 4646 9f3d 8e58 f93c 6235 74bd
00000290: 6690 6fbd f373 51bd d16a 5c3d 23bf 76bd
000002a0: b204 2b3d 7b2c 683d 7067 9e3b 3d54 963d
000002b0: cf11 8cbd 5242 0dbd 089f 9bbd b586 943d
000002c0: 590e f03a 65c2 103d 80d4 a5bc 6ece 903d
000002d0: a699 813d c84d 88bd 0ed3 bcbb f218 993d
000002e0: 6808 9f3d 0240 8e3c a0bc 38bd db20 33bd
000002f0: 8cbc a43d afd3 a8bc 8bef 4b3d 7ed0 96bc
00000300: 5ccd 03bc b722 923d 7854 583d e6e9 0eba
00000310: ebaf b4bc 169a 26bd e6f8 5e3d aaeb a33c
00000320: f5b7 de3c 2b6e 72bd acbe b7b8 835c 50bd
00000330: 441d 5f3b aac0 93bd dc36 b2bd 2914 483d
00000340: 42b5 83bd c25f 96bd e216 493d 13f0 87bc
00000350: 0a6c a03d 8473 90bd 0055 143d 4e0b 60bc
00000360: 94bb fc3c 27dc c8bc 0d2e b2bd ca4a b63c
00000370: 4fde 783d 5501 72bd 4d8b 75bc 8a36 863c
00000380: 95ae 92bd dd48 903d b8ee 253d 44cf 283b
00000390: 7ede 1ebd 9b56 fa3c b22a 9dbd 1e56 0f3d
000003a0: 68dc cdbc 82ef 843c a716 a6bc 2c14 cfbc
000003b0: 68a5 9f3d ec24 71bd f00e 18bc ad8b 863a
000003c0: 1edf 58bc de80 90bd 78b3 a33d f6bc 42bd
000003d0: 5765 3bbd 126e 14bd 839b 0a3d b853 933c
000003e0: d812 553c 4586 51bd 0c0e e7bc 802b c53c
000003f0: 7d5b aabd 9cd4 b1bd 7425 1c3c 788f 90bd
-0.08933526 0.049910955 0.08192709 -0.028343441 -0.06331871 -0.0038072958 -0.06248793 -0.088672295
0.026219778 -0.017897453 0.021447124 -0.04805038 0.054478217 -0.044557095 -0.0741221 -0.03052236
-0.008734907 0.021080706 -0.036287367 -0.012218954 -0.0541786 -0.033193316 -0.012804106 0.01799421
0.00096571876 -0.07095643 -0.053647857 -0.08703682 0.036125526 0.03416476 0.09044321 -0.04014522
0.040226627 -0.05540593 0.080911316 -0.04568125 0.07229585 0.09223166 0.069213 0.051043786
-0.027569685 0.06373288 0.026477106 -0.07432839 0.037259094 -0.0106894225 0.06833521 0.0022483754
-0.072789945 -0.019567128 0.07752731 0.04518238 0.02182741 -0.088682204 0.049595717 0.054025333
-0.060189173 -0.07314701 -0.03801262 -0.07184259 0.06425035 -0.071442306 0.06112344 -0.07104773
0.02710676 -0.044474572 -0.012884141 0.07633205 0.0016298539 -0.05845431 0.0074207867 0.07809313
0.0130052315 0.024984486 0.049186297 -0.015122679 -0.036999047 0.08814053 0.059192907 0.043494128
0.06875387 -0.0016697039 -0.0073952023 0.06800519 -0.042297207 -0.040910356 0.012042444 0.018739207
0.06534075 -0.008479284 -0.07386079 -0.060940187 0.071145 0.07227754 0.05324417 0.0067304163
-0.0184989 -0.006633818 0.046371315 0.0026958995 0.06939818 -0.013086511 -0.0064195357 -0.007433573
-0.041509837 -0.07721526 -0.009383912 -0.019723605 -0.025135074 0.043278746 0.08550814 -0.04841488
0.012038265 0.07692032 0.07522338 -0.008430846 -0.008394056 -0.049671117 0.077870324 -0.034562152
0.017630376 -0.012015464 -0.044876136 0.049954254 -0.0447569 -0.016596764 -0.027231816 0.024244217
-0.06973623 0.014228977 -0.056880206 -0.01268047 -0.050372902 -0.072106555 0.038460102 -0.07751079
0.052271925 0.029061642 0.050138578 -0.013050335 -0.026587108 0.03946479 -0.06710909 -0.003878675
0.06599942 -0.04906428 0.05172207 0.022504829 -0.06167649 0.026324114 -0.039341595 -0.0077976575
-0.06449706 -0.07312753 -0.0842619 0.037448093 -0.083728 0.012071171 -0.07180636 0.014971377
-0.02069452 0.077770755 0.030437734 -0.059621222 -0.05848732 -0.05113597 0.053812806 -0.060240876
0.041752525 0.056683045 0.004834108 0.07340286 -0.06839334 -0.034487076 -0.07598692 0.07252256
0.0018314823 0.03534164 -0.02024293 0.07070623 0.06328134 -0.066554606 -0.0057624644 0.07475461
0.07765275 0.017364506 -0.04510176 -0.043732505 0.08043775 -0.020608751 0.049788993 -0.018409964
-0.008044567 0.071355276 0.05281493 -0.00054517237 -0.02205654 -0.04067429 0.054436587 0.020009834
0.027187327 -0.059187096 -8.7616354e-05 -0.050869476 0.0034044543 -0.07214482 -0.0870187 0.04884735
-0.064310566 -0.07342483 0.04909409 -0.016593968 0.07833107 -0.07053283 0.036213875 -0.01367457
0.030851163 -0.02451904 -0.0870019 0.02225246 0.060758885 -0.0590833 -0.014986825 0.016383428
-0.07162205 0.070451476 0.040510863 0.0025758306 -0.038786404 0.030558875 -0.07674159 0.034994237
-0.025129512 0.016227487 -0.020274473 -0.025278173 0.077952206 -0.058873102 -0.009280905 0.0010265015
-0.013236789 -0.070558295 0.07993215 -0.04754349 -0.045750942 -0.036237784 0.033839714 0.017984256
0.013004981 -0.05115344 -0.02820494 0.024068594 -0.08318231 -0.0868313 0.009530414 -0.070586145

hidden3.bias f4 [256]
00000000: 4b68 8d3c 71d2 613c 1167 5cbd f677 1e3d
00000010: ca25 d33c 7120 86bd 73f5 ab3a 4a3e 2cbb
00000020: d5cd 323d 4bad 55bd 5044 8c3c 416b 8b3c
00000030: a174 fe3c 95bf 093d 1e5c af3d 2ff3 443d
00000040: 0270 ab3a c072 24bd e124 35bd 6e93 96bd
00000050: 2db6 803d e3c0 843d dc83 d2bb 57f8 8abd
00000060: 00f4 753d f951 733c a97c 1d3c bc29 98bd
00000070: 208d 3cbb 00a6 77bd 311c b7bc 4ac5 6c3d
00000080: e154 433d 5e06 1d3c a822 423d 2d09 a4bc
00000090: 59db 9c3d f11e 233c 8638 1cbd 7c94 80bd
000000a0: 3c2d afbd 0421 9cbd 3cb4 22bd f817 8c3d
000000b0: 2f74 ac3d 0029 2bbc ddf3 003d 34d3 afbd
000000c0: ee59 fbbc 58e0 95bc 6e05 943b 9afe 89bc
000000d0: 1929 bbbc 7fe0 6bbd f0bf a33d 3bb1 a7bd
000000e0: c4a2 4ebd 4c62 84bd c83f 7abc 6f8e a53b
000000f0: d21f 89bd 6831 b1bd f98e 5abd 20dd dfbb
00000100: 092c 4bbd f6cf 0bbd ff01 973d 7e60 91bd
00000110: 58cf a5bd 897a ffbc 83e9 a63c cdd6 5cbd
00000120: ce80 73bd 5860 60bd 4c09 bb39 a1c1 2bbd
00000130: aeeb ad3c 784a 08bd c832 41bb 06ca 4f3d
00000140: a0aa d8bc d5ae 7fbd 9a8e 98bd 94e2 6c3d
00000150: 4271 6cbc 2a76 2cbc 817e c4bc 8e47 843d
00000160: 250f a9bd f733 53bc 6879 6f3d 11a9 b63d
00000170: 3c66 673c 1cda 873d b070 00bd aa69 123d
00000180: c901 7c3d 5d83 82bd 3706 003c 8749 883d
00000190: c10d 5c3c 809c 4fbc b98c fe3c 7d61 0c3d
000001a0: 4890 b2bd 3cf2 2f3d a219 84bd b606 3c3d
000001b0: abdb 78bd 66f4 1cbd b3cb aebd c086 a9bd
000001c0: 8cc5 003d 65f5 68bd 3d63 91bd cdfa 403d
000001d0: cbaf ca3c 3b11 333d 3944 583c 5d95 e8bc
000001e0: b5a3 653c 3431 a23c 322f aa3d 982b a83d
000001f0: 3cc3 c8bb e42a 4fbd 8505 ba3d 470e a5bd
00000200: 78e2 7fbd 8a76 92bd a3f2 46bd 863a 643d
00000210: 5afc a43d a695 a8bc 4a06 9a3d 1a2a 393c
00000220: 7a71 a33d 0316 863d fbba 543c 98e0 813d
00000230: 9b33 5b3d 589b 1b3c e1c6 723d 02ab 723d
00000240: 1669 b4bd 8151 833d d27a 20bd 4063 7ebd
00000250: a2a6 833b e4c0 8a3d c486 12bd aa89 853d
00000260: cd1f b4bc 1961 e0bb 4e5f ef3c 00bb 5b3d
00000270: ad53 053c 1314 903d 5bf2 27bd 57f0 2d3d
00000280: 5c63 8bbd f5af a03d 8003 0ebd 0780 bbbc
00000290: 4147 82bc 02a4 71bd 08dc 6b3d 1125 b1bd
000002a0: 82ac 433d d0bf 023b 3754 13bd 2460 3cbd
000002b0: 5498 84bc 6cc4 b23d c039 3cbc 94a4 113d
000002c0: 72e7 8bbb 8ff2 ee3c c5db 873b 58d8 bb39
000002d0: 52fc 803d 70f8 d7bb 8883 b7bc 2347 483d
000002e0: 5ea3 00bd 3959 d23c 5bbf a83d ff30 e63c
000002f0: 56f7 523d 8825 6cbd 214e dabc 880e ac3c
00000300: 9893 133d 7621 62bb 28a1 2c3d 77a7 a1bc
00000310: 7499 b43c acbb 163d 3b38 7f3d f63a 0c3d
00000320: 3833 79bd 52d4 9f3d c631 3f3d 710c 2f3d
00000330: 9791 50bd ea0a 4f3d b63a 45bd 010b 7b3d
00000340: 7d2c f03c bbcc bf3d d235 883d 7e00 73bd
00000350: b6d8 a8bd 9a83 b03c 68cf 873d 8b22 cabc
00000360: 2c91 a13d 4a10 b6bd ac5f 393c 1feb 753d
00000370: ec53 2e3d 1b7f 523d 6a85 70bd fe30 613d
00000380: 80a1 5ebb 87b5 90bd 06b7 753d 1fc8 c1bb
00000390: f801 07bc 5d4c 973c b882 253d 6d09 9cbd
000003a0: e3ec a1bd 87bf 71bd 4999 813d fa8c 243d
000003b0: 27e8 4cbd a113 8b3d 1508 4a3d 3441 4bbd
000003c0: 1850 cdbc ee1d aa3b 4174 623d 92a7 a03d
000003d0: 6f7d b83c 40d1 80bc f8f5 ccbb dd88 8bbd
000003e0: f7bb 03bd 6f8a 5ebd bec1 a13d acd0 593d
000003f0: 3b65 02bd 186a 11bb 9801 90bd 2c86 323d
0.017261645 0.013783083 -0.05380923 0.038688622 0.025774855 -0.065491565 0.0013119414 -0.0026282244
0.043653328 -0.05216722 0.017122418 0.017018916 0.031061472 0.033629972 0.08562492 0.04808348
0.0013079646 -0.040148497 -0.044224624 -0.07352339 0.06284747 0.06482103 -0.0064244103 -0.06785648
0.06004715 0.014851087 0.009612241 -0.07429835 -0.002877064 -0.060461044 -0.02235231 0.057805337
0.04768837 0.009584038 0.047396332 -0.020023907 0.07659025 0.0099561075 -0.038139842 -0.06278321
-0.0855355 -0.07623485 -0.039722666 0.06840509 0.08420598 -0.010446787 0.031482566 -0.08585206
-0.03068253 -0.018295452 0.004517249 -0.016845036 -0.022846745 -0.057587143 0.079955935 -0.08188101
-0.050448194 -0.06464061 -0.015273996 0.00505238 -0.06695522 -0.086520016 -0.053359006 -0.00683178
-0.049602542 -0.034133874 0.073734276 -0.070984825 -0.08096188 -0.031186359 0.020375019 -0.053915787
-0.05944901 -0.05477938 0.00035674346 -0.041932706 0.021230545 -0.033274144 -0.002947973 0.050729774
-0.026448548 -0.062422592 -0.07449074 0.05783327 -0.0144313 -0.010526219 -0.023986103 0.064589605
-0.08254842 -0.012890807 0.05846539 0.089189656 0.014123496 0.06633398 -0.031357467 0.0357453
0.06152514 -0.06372712 0.007813982 0.06654649 0.013431014 -0.01267159 0.031072961 0.03427266
-0.08718926 0.042955622 -0.064502016 0.045904838 -0.060756367 -0.038319014 -0.08534946 -0.08277655
0.031438395 -0.05687465 -0.07099006 0.047114182 0.024742028 0.043717604 0.013199859 -0.028391534
0.014016082 0.019798853 0.08309783 0.0821144 -0.0061267894 -0.050578013 0.09083084 -0.08059364
-0.062471837 -0.07151516 -0.04857124 0.055719875 0.08055945 -0.02057917 0.07520731 0.011301542
0.07980628 0.06547167 0.012984033 0.06341666 0.05351601 0.009497486 0.059271697 0.059245117
-0.08809106 0.0641203 -0.03917963 -0.06210637 0.004017667 0.06775072 -0.035773054 0.06520398
-0.02198782 -0.0068475124 0.02922025 0.053645134 0.008137626 0.07035079 -0.041002613 0.042465534
-0.06806061 0.07846061 -0.034671307 -0.022888197 -0.015903117 -0.0589943 0.057582885 -0.08649648
0.04777194 0.0019950755 -0.035968985 -0.045990124 -0.016185917 0.08728871 -0.011488378 0.035557345
-0.004269534 0.029168395 0.0041460716 0.00035828608 0.06298126 -0.0065908954 -0.022401586 0.048895966
-0.0314058 0.02567731 0.08239623 0.028099535 0.05150541 -0.05765298 -0.026648583 0.021003023
0.03602943 -0.0034504808 0.042145878 -0.019733174 0.022045828 0.03680007 0.062309485 0.034235917
-0.06083986 0.07804169 0.046678327 0.042736474 -0.050920095 0.050547518 -0.048151694 0.06128979
0.029318089 0.09365221 0.066508904 -0.05932664 -0.08244459 0.021547128 0.066313565 -0.024674674
0.078890175 -0.08889826 0.011314314 0.060038682 0.042560503 0.05139075 -0.058720984 0.054978363
-0.0033970773 -0.070658736 0.059988998 -0.005913749 -0.0082402155 0.01846903 0.040407866 -0.07618985
-0.07906511 -0.059020545 0.06328065 0.04017351 -0.050026085 0.06790853 0.049324114 -0.04962273
-0.025062606 0.005191556 0.05528665 0.078444615 0.022520749 -0.015724778 -0.0062549077 -0.06813214
-0.03216168 -0.05433124 0.078982815 0.05317752 -0.031834822 -0.002218848 -0.07031554 0.043584988

hidden4.weight f4 [128, 256]
00000000: f067 b7bb c07a 733d e8dd 6a3d 800f 6cbc
00000010: c003 7cbb f096 a9bb 0830 7dbc ba64 2f3d
00000020: 10f9 9e3b 48d7 263d 704a 803c f03b 3f3d
00000030: 3644 7abd 0043 c5bb e455 44bd b05d 0a3c
00000040: 40c4 96bc 26ad 173d 364e 313d e807 553d
00000050: 0cab 1abd 2038 41bd 7c21 f63c 8055 573c
00000060: 2402 103d 5c82 b23c 1ca5 6fbd 002c 39bc
00000070: aec4 773d 6437 b83c aed5 13bd 82a1 1a3d
00000080: 60d8 4b3c e0aa 3e3b 301d 223d d44d a23c
00000090: 9ad4 69bd 1037 f73b c80e c9bc a8e5 29bd
000000a0: fe11 54bd e23f 09bd 74d0 ab3c 2a11 403d
000000b0: 0e99 01bd 4054 4a3d 848c 613d 1893 7ebd
000000c0: 68da 953c ce91 6abd 8ea3 323d 72e8 393d
000000d0: 888e 163c 8a3d 6abd 1805 95bc f8da 32bd
000000e0: 9064 e73c e6d5 2cbd a8d3 35bd c291 0bbd
000000f0: b213 773d 9ee1 3ebd f410 c83c 085d 92bc
00000100: bc62 54bd 6a36 6bbd 1040 85bb 204b 3cbd
00000110: 403c a5bc 48e6 03bc aa29 6e3d e0c3 1cbb
00000120: b8bd 8d3c a039 6a3b a496 d53c 60bd 3d3c
00000130: 28ba 523c c443 9f3c 1628 47bd 70bb c6bb
00000140: 700b 57bd 00a6 67bd 5865 5c3d 7e08 06bd
00000150: 58ff 4d3c b4e4 1dbd 68d3 8cbc 0ee4 613d
00000160: 009f c8bc 86f5 03bd c63d 343d 5859 ff3c
00000170: 1c25 93bc d02c 6ebc 045b ddbc 28d8 4b3d
00000180: a251 54bd 9298 0a3d 3632 7c3d 8063 7abb
00000190: acce 403d 3c65 f4bc 949f 8f3c 148b 80bc
000001a0: c0b4 ac3c 1c3b 4c3d feb5 38bd a405 31bd
000001b0: 4094 3cbc daa7 653d 98db 593c 0a0f 08bd
000001c0: 6037 a13c 80b4 e03a 82d0 563d 4051 d73b
000001d0: 2438 003d 9827 00bc cc75 c13c 70fe f5bc
000001e0: 247e 32bd 2837 143c 04d7 50bd 2478 cfbc
000001f0: 5c6f c2bc 780d 68bc 4434 593d 623e 08bd
00000200: 9096 cf3b 808a d1bc 304f bbbb a8a6 ad3c
00000210: 7ca6 7dbd a0ed 593d 00f8 903a b8d9 9ebc
00000220: 64d5 493d 00bb 763d fc1f 27bd 90d6 4dbd
00000230: b006 adbc 8c66 e53c 3c9d 7fbd 549e bebc
00000240: 722a 22bd 88b3 4f3d 58ba 6cbd 6056 73bc
00000250: 6050 b13b 3612 563d 88f0 59bc 586b 60bc
00000260: f861 363d d4be 033d 88c6 ad3c 684f 8ebc
00000270: 38f9 1cbc 924d 3dbd 5c59 bc3c 400a 773d
00000280: 800f 6e3b 2a6f 6fbd 5496 e2bc 4017 0e3b
00000290: 58e9 663c 7048 30bc 486e 0cbd 62a7 343d
000002a0: c215 6ebd fa5e 243d 0c15 17bd 8e32 1cbd
000002b0: 782b bf3c a00f 303b 5836 8fbc 60bd 29bc
000002c0: 901c 9c3c b414 5d3d b0d6 a03c 84ab 82bc
000002d0: 1263 5d3d ea64 52bd 28b0 0cbc 00dc 533b
000002e0: 085e 78bd 866f 6ebd 5cb0 10bd 0003 483a
000002f0: c037 a93b f60c 6d3d de32 033d b6aa 61bd
00000300: ac1f fa3c 6e7a 4dbd cc12 1e3d c85a 373d
00000310: 78a4 22bd 8e3a 683d f873 e3bc 9858 933c
00000320: 949e 0cbd 906e 89bb 38d4 e9bc 9c16 7a3d
00000330: 3ef0 6a3d d0cd ff3c 7adb 7d3d f00d 1f3d
00000340: 10a9 d9bc 96cd 1dbd b2a9 44bd 7818 98bc
00000350: 4071 b93c a437 72bd 4879 99bc 0089 963c
00000360: ce6a 2e3d 2067 7d3b 4abd 3b3d b02d 7a3d
00000370: 780e 4dbd 88b4 0c3c 28d0 75bd d4a6 76bd
00000380: d497 393d 58bf d4bc a078 ff3b 48bb 713d
00000390: 9834 3e3c 64e7 95bc 48c4 fabc 4eae 693d
000003a0: 386e f73c d840 18bd fefa 72bd 482d 7f3c
000003b0: 08f1 093d ecbb 88bc b0a1 563d 8a19 29bd
000003c0: fab3 5ebd 1c02 cbbc 0865 483c 60b3 673b
000003d0: cc94 d8bc 3461 b7bc da1c 0abd 1013 d43c
000003e0: 3cbc 9bbc 8a36 20bd f89b fcbc d8b8 8dbc
000003f0: b469 d53c 58d2 293c 703d af3c 7014 ea3b
-0.005597107 0.059443235 0.057340533 -0.014407992 -0.0038454384 -0.005175464 -0.015453346 0.04282067
0.004851468 0.040732652 0.015660495 0.04668802 -0.061100207 -0.00601995 -0.047933474 0.008445188
-0.018404126 0.03703036 0.04328748 0.052009493 -0.03776078 -0.047172666 0.030045263 0.013142943
0.03515829 0.021790676 -0.05850707 -0.011301994 0.060490303 0.02248735 -0.036092453 0.037751682
0.012441725 0.0029093549 0.039578617 0.019812502 -0.05708752 0.0075444058 -0.024543181 -0.041478783
-0.05177497 -0.03350819 0.020973422 0.04689137 -0.031640105 0.049396753 0.055065647 -0.062152
0.01829262 -0.057267956 0.04361301 0.045387693 0.009189256 -0.057187594 -0.018190905 -0.043665856
0.028246194 -0.042196177 -0.044391304 -0.034074552 0.060321517 -0.046601884 0.024422146 -0.017866626
-0.051851973 -0.05742494 -0.0040664747 -0.045970082 -0.020170331 -0.008050509 0.058145203 -0.0023920462
0.017302379 0.0035739914 0.026072808 0.011580795 0.012861766 0.019441493 -0.048622213 -0.0060648248
-0.052501142 -0.056554794 0.053807586 -0.032722943 0.012573086 -0.038548186 -0.01719065 0.05514913
-0.02448988 -0.03221657 0.044004224 0.031170532 -0.017962031 -0.014537051 -0.027020939 0.04976669
-0.051835664 0.03383691 0.061571322 -0.003820628 0.047072098 -0.029833429 0.017532147 -0.015691318
0.021082282 0.04986106 -0.045095436 -0.04321827 -0.011509955 0.05606828 0.013296984 -0.033217467
0.019679725 0.0017143637 0.052444942 0.006570965 0.03130354 -0.00782194 0.02361574 -0.030028552
-0.04357733 0.009046353 -0.050986305 -0.025325842 -0.02373474 -0.014163367 0.05302836 -0.033262618
0.006335087 -0.025578737 -0.005716227 0.021197632 -0.06192635 0.053205132 0.0011060238 -0.019390926
0.04927577 0.06023693 -0.040801987 -0.05025345 -0.021121353 0.028003 -0.06240581 -0.023268856
-0.03959126 0.050708324 -0.0577949 -0.014852136 0.005411193 0.05226346 -0.013301976 -0.013697468
0.044527024 0.03216441 0.021212831 -0.017371848 -0.009580903 -0.046216555 0.022991829 0.06031251
0.0036325157 -0.058455624 -0.027659573 0.0021681339 0.014093719 -0.010759458 -0.03428486 0.04410494
-0.05812622 0.04012964 -0.036885306 -0.03813415 0.023336157 0.0026864782 -0.017481968 -0.010360092
0.019056588 0.053974822 0.019633621 -0.015950926 0.05404956 -0.05136577 -0.008586921 0.0032327175
-0.06063655 -0.058211826 -0.03532444 0.00076298416 0.0051641166 0.05787369 0.032030933 -0.055094443
0.03053268 -0.050165586 0.038592145 0.04476431 -0.03970763 0.056696467 -0.02776526 0.01798658
-0.03433092 -0.0041940883 -0.028543577 0.06105672 0.05735802 0.031226069 0.061976887 0.03883165
-0.026569873 -0.03852614 -0.048013397 -0.018566355 0.02263701 -0.059135094 -0.01873459 0.018375874
0.042582326 0.0038666204 0.045834817 0.061078727 -0.050062627 0.008587964 -0.060012966 -0.060217693
0.04531081 -0.025970146 0.007796362 0.059016496 0.011609219 -0.018298812 -0.030611172 0.057050996
0.030203924 -0.037171215 -0.059321396 0.015574761 0.03367713 -0.01669117 0.05240029 -0.04128412
-0.054370858 -0.02478128 0.012231119 0.0035354719 -0.02643814 -0.022385217 -0.03371892 0.025887996
-0.019010656 -0.039114513 -0.03083609 -0.017300054 0.02605138 0.010365091 0.0213916 0.0071435496

hidden4.bias f4 [128]
00000000: 3610 08bd 9989 77bc 4024 bc3b 8708 803d
00000010: 8077 ecba 860d f53b 49f3 aa3b 4820 2e3d
00000020: 286f 6cbc 533d e8bb a855 633d 3252 76bd
00000030: f0f5 3a3a e06b 7fbc 0676 37bd 9bda 633d
00000040: 7041 633d ee11 49bd cc85 d6bc 40b9 8fbc
00000050: e981 223d 9483 9dbc fb33 3b3c 8747 e13c
00000060: 20bb fabb 0891 863d 49b6 c63c fdf9 423d
00000070: 7ee2 94bc ea76 5dbd 0f83 08bd d2c1 d83c
00000080: 2566 653d 1889 5fbc 27eb 34bd edf8 f23b
00000090: 629f 1bbd 5911 033c ab8e e13c efbb a7bc
000000a0: 24c4 64bd b7e7 3b3d 64df cdbc 7482 ee3b
000000b0: 30c1 803d f988 f4bc a0ef 683d e852 efbc
000000c0: b7c1 753d ce56 c33c ebbb 383d 4be5 093d
000000d0: d070 4fbd 2221 6abd 4c1a f1bc cabd 47bd
000000e0: 2f47 4b3d d486 6bbd 1ec9 ef3c d26f aa3b
000000f0: 9a7c 68bd 3673 11bd 06f9 1abd 7e8b 7fbd
00000100: 08ab 6e3d 5828 35b9 86bb 2abd 4839 b4bc
00000110: cefd cf3c 23e1 653d 3249 063c 2442 003d
00000120: 2448 e23c 1070 a2bc bcb2 94bc 4c86 6d3d
00000130: 5dd5 3c3d f65b 5c3d e39b 2d3d 07b3 0a3d
00000140: e1cd 633d 3e86 4c3b 32ee 173d 71e1 92ba
00000150: 7ad9 27bd 1453 233d b44f 08bd 383e dd3c
00000160: 0ba7 76bd 2f73 f9bc 6015 1dbd 4960 1d3d
00000170: babf 6abd 2afc 3abd a299 5f3c 1457 be3c
00000180: 8570 d43c 8019 bcbc d20b 1cbd 1826 6cbd
00000190: f844 e6bc 5f6b f9bc 3c98 3fbd a68a 3a3d
000001a0: e0b2 13ba be6b 993c a473 8fbc 6370 ec3b
000001b0: f034 a339 c8d1 5b3c cf92 863c f19c 0d3d
000001c0: bdf9 8b3c 9ff4 c53c 10cd 0ebd 3dfd aa3a
000001d0: a698 6abd bb09 0abd 7e16 6bbb 559d 513d
000001e0: c482 a83c 0d10 b6bc 2e6d 813d 6828 cf3b
000001f0: ac4e d6bc 46e1 8a3b 7e7d 41bd 9da8 873c
-0.033218585 -0.015108489 0.005741626 0.062516265 -0.0018040985 0.0074784188 0.00521699 0.042511255
-0.014430799 -0.0070873885 0.05550161 -0.06013698 0.00071319845 -0.015589684 -0.04479029 0.0556284
0.055482328 -0.049089365 -0.026186846 -0.017544389 0.039674673 -0.01922778 0.011425967 0.027499927
-0.0076517016 0.06570631 0.024256842 0.04760169 -0.018174406 -0.054068483 -0.033328112 0.026459608
0.056005616 -0.013643526 -0.04416957 0.007414928 -0.037993796 0.0079997415 0.02753385 -0.020475356
-0.055851117 0.045875277 -0.025130935 0.007278735 0.062868476 -0.02985047 0.05686915 -0.029214337
0.059999194 0.023845103 0.045101088 0.033665936 -0.050644696 -0.057160504 -0.029431485 -0.04876498
0.049628433 -0.05750163 0.029270705 0.0052013183 -0.056759454 -0.035510264 -0.037835144 -0.06238889
0.058268577 -0.00017276534 -0.041682743 -0.02199997 0.025389578 0.05612291 0.008196162 0.031313077
0.02762229 -0.019828826 -0.018151633 0.057989404 0.046101917 0.05379864 0.042384993 0.03386214
0.055616263 0.0031207944 0.037092395 -0.0011206103 -0.040978886 0.03987415 -0.033279136 0.027007207
-0.0602179 -0.030450432 -0.038350463 0.038421903 -0.05731175 -0.04565064 0.013647469 0.023234881
0.02593256 -0.022961378 -0.03809721 -0.057653517 -0.028109059 -0.030446706 -0.04677604 0.04554238
-0.00056342594 0.018728133 -0.017511196 0.007215546 0.00031129224 0.013416715 0.016427426 0.0345735
0.017086858 0.024164496 -0.03486353 0.0013045442 -0.057274483 -0.033700686 -0.003587156 0.051175434
0.020570166 -0.02222445 0.063196525 0.0063219555 -0.02616056 0.0042382805 -0.04723882 0.016559893

hidden5.weight f4 [64, 128]
00000000: c0e7 27bd a3aa a4bd 7405 a53d 08db 2a3d
00000010: 8c69 13bd 47a9 9abd 49d8 c6ba e5b3 90bd
00000020: 022b 053d bee8 a43d 0314 16bd b068 8e3b
00000030: cd86 aabd fed3 153d f529 ad3d 6a8a e4bc
00000040: 19c6 6e3d 2a87 95bd 27e7 a33d 8770 a43d
00000050: 004c 183d cc0d 9abd 10be ab3d 614f 11bd
00000060: 1caa f63c ba66 703c b541 893d 4c5e 8d3d
00000070: 682b b13c f15c a1bc 1cad 733d 335a ab3c
00000080: c279 a4bd b9f6 16bd cf83 f93c c37c 8e3d
00000090: 862d aa3d 4079 993d c9d5 3abc 3ccd 6e3d
000000a0: 6786 87bd fb02 5b3d ecf8 843c a6ac 543c
000000b0: 832b 1dbd 0dcd 68bd c51d 88bd 69f5 a7bd
000000c0: c2ee 8cbd d305 46bd ad20 3cbd f080 893d
000000d0: a89d ff3c ce54 6a3d da91 5fbd 3a50 34bd
000000e0: 8a82 943d 6c06 9abd 626b 083d bdd7 093d
000000f0: 0e31 11bd 4313 9abd 9c37 adbd fe06 6b3d
00000100: 9ba4 3c3d 0f26 9ebd 60c7 b73b e0a5 89bd
00000110: 33e8 993d 0366 493d 3bda 98ba 7e21 fb3b
00000120: 1c43 743d 24bb 94bd 3093 efbb 1aba 8bbd
00000130: e17f 043d aec2 81bd 7a1a a53d fa4d 4d3d
00000140: 2ba6 ea3c 0372 6abd 9007 1f3d 4e88 99bd
00000150: ca9f 1dbd 9924 fd3c 6885 d6bc 1250 75bd
00000160: 6e23 6a3b c58f 93b9 fa9a 1abd 4851 88bd
00000170: f61a 083d 4053 0e3b afbd dd3b 904e c53c
00000180: b490 90bd 5344 a2bd 4026 963c e0f1 5c3b
00000190: 313e 87bd 61d7 a3bd 7b98 823d 7093 7a3d
000001a0: 2955 49bd 4eb6 24bc 3681 90bd d00f a53c
000001b0: 9506 233c 003b a4bb a5c8 b63d 6a07 3cbd
000001c0: 307c a8bd 741a 33bc 34da d23c 6932 f53c
000001d0: 2377 a33d 82a3 513d 6af7 4f3d a0a5 adbc
000001e0: 323f 133d b24a f7bc ad11 ba3d 2174 643d
000001f0: 884a 55bc c37b 8e3d 1069 6d3c a257 bfb9
00000200: d2ce 513d 243c c23c b0b2 a5bb 880d 92bd
00000210: 60ef 5abc e246 613d 109a 37bd 9df8 a23d
00000220: 1402 9a3c 60fa 91bc e966 b33d 91b6 823d
00000230: 6081 bf3b 70e1 833b 712a a43d 3733 8dbd
00000240: 0189 863d 5e6b 5c3d c017 043c 585a 7fbd
00000250: 54e5 9fbc 1843 b83c 60a5 31bb 2e02 89bd
00000260: f206 1e3d 889d 653c f0e6 733c 09a0 ab3d
00000270: 20ac 523b 4054 0c3b 7d15 11bd 00f3 bf3a
00000280: d4b7 abbc b84e 2fbd 0e7b 6d3d 606d 0abb
00000290: 4d27 b13d 0cec b4bd 6e24 91bd a0ef b9bc
000002a0: 583a 863c ee63 60bd df65 8cbd ae67 533d
000002b0: 222d 13bd 9415 4cbd 06fa 5d3d 6245 5fbd
000002c0: 987d b4bd 332e 863d 315a 08bd a6e0 d5bc
000002d0: abe0 b03d 2ca7 6ebd 28ea 6a3c 000c abb9
000002e0: d0a3 81bb 3f9d 0abd 1ee0 713d 1471 99bd
000002f0: 545a 873c 3b46 993d 3edd 723d 7b89 52bd
00000300: 66f3 6ebd 0db4 933d 9868 e23c f92f 843d
00000310: aaa0 9cbd 82e6 413d f990 af3d cb95 83bd
00000320: 5eb2 563d 8ea7 583d 46e2 05bd 71fa 5abd
00000330: b08f 86bd e2a3 22bd 08da 8f3c 57ef a9bd
00000340: 4b2c 9dbd d0fa b6bc 4c80 efbc c4bf 14bd
00000350: 6ca5 b2bd f375 a13d bb7a 08bd 761c 333d
00000360: 845e c43c 977d a33d 8a7e 8abd e4c0 c8bc
00000370: ac80 a7bd 7064 d63c 8cda 8abd 7d1e 66bd
00000380: 59ed 47bd ab86 833d 9883 25bd ec6c 8fbc
00000390: 5fb4 953d e86c 02bc af84 4cbd 2e80 3f3d
000003a0: 3854 a33c 2181 963d a4a6 66bd f9bf ae3d
000003b0: d0ea e73c 8893 79bc f1da ac3d c080 a2bc
000003c0: f836 ad3c b439 c9bc 6857 d3bc a6eb 283d
000003d0: 8eed 163d 017a aa3d 58fc b1bc 44bd c2bc
000003e0: a526 b03d 763a 88bd 42c1 7fbd 9033 90bb
000003f0: d079 e0bc 6cc6 8d3c 61c9 7bbd 173d aa3d
-0.0409925 -0.08040359 0.08057681 0.04171279 -0.03598933 -0.07551818 -0.0015170659 -0.07065562
0.03251172 0.080522045 -0.03664018 0.004345976 -0.083264925 0.036579125 0.08455268 -0.027898032
0.05829439 -0.07301171 0.08003073 0.080292754 0.037181854 -0.07522163 0.08385861 -0.035476092
0.030110411 0.014672929 0.06701986 0.06902751 0.021627143 -0.019697638 0.05949126 0.020917034
-0.08031036 -0.036856387 0.030458359 0.0695739 0.08309464 0.0749383 -0.011403509 0.058301196
-0.06617432 0.05346964 0.016231976 0.012980616 -0.038371574 -0.056836177 -0.06646303 -0.08201105
-0.06881477 -0.0483454 -0.0459296 0.06714046 0.031203106 0.057209782 -0.054582454 -0.044021823
0.07251461 -0.07520756 0.033305533 0.03365301 -0.035447173 -0.07523205 -0.08457872 0.057379715
0.046055418 -0.07722103 0.005608484 -0.06721091 0.075149916 0.04916955 -0.0011661717 0.0076639047
0.059634313 -0.07262257 -0.0073112473 -0.068226054 0.032348517 -0.0633596 0.08061691 0.050123192
0.028643688 -0.057237636 0.03882557 -0.07496701 -0.038482465 0.03090124 -0.02618666 -0.059890814
0.0035726684 -0.00028145142 -0.037745453 -0.06656128 0.033228837 0.0021717101 0.006766997 0.024085313
-0.0705885 -0.07923188 0.018328786 0.0033713505 -0.06603659 -0.08000065 0.063767396 0.061175764
-0.04915348 -0.01005323 -0.07055895 0.020149142 0.0099503 -0.005011916 0.08924989 -0.045905508
-0.08226812 -0.0109316 0.025738813 0.029931264 0.07981708 0.051181324 0.05077306 -0.02119714
0.03594894 -0.030186985 0.09085403 0.05577481 -0.013018258 0.069571994 0.014490381 -0.0003649565
0.05122263 0.023710318 -0.0050567016 -0.07131487 -0.0133627355 0.05499924 -0.04482466 0.079575755
0.018799819 -0.017819583 0.08759863 0.06382478 0.00584428 0.004024677 0.080159076 -0.06894534
0.065691 0.05381333 0.008062303 -0.062342018 -0.019518532 0.02249293 -0.0027106628 -0.06689869
0.038580842 0.014014609 0.014886603 0.08380134 0.0032146052 0.0021412522 -0.035420883 0.0014644563
-0.02096168 -0.04279968 0.057978682 -0.0021122321 0.08650074 -0.08834085 -0.070870265 -0.02269727
0.016385242 -0.0547828 -0.06855368 0.05161255 -0.035931714 -0.049825266 0.05419352 -0.054509528
-0.088130176 0.065517806 -0.03328914 -0.026108097 0.08636602 -0.058264896 0.014338054 -0.00032624602
-0.0039562955 -0.033841368 0.059051625 -0.07492271 0.016522564 0.074840985 0.059293024 -0.051400643
-0.05833759 0.07212076 0.027637765 0.064544626 -0.07647832 0.04733897 0.08572573 -0.06425055
0.052416198 0.052894168 -0.032686494 -0.053461496 -0.06570375 -0.039707072 0.01756002 -0.082976036
-0.07674464 -0.022336394 -0.029235981 -0.036315694 -0.08722958 0.07883825 -0.03332017 0.043728314
0.02397085 0.07982939 -0.06762417 -0.02450604 -0.08178839 0.02617094 -0.06779966 -0.05618142
-0.048810337 0.0642217 -0.0404087 -0.017507993 0.07309794 -0.007960536 -0.049931224 0.0467531
0.01993762 0.07348848 -0.056311265 0.0853271 0.02831021 -0.015232928 0.08440197 -0.019836783
0.021144375 -0.024563648 -0.025798514 0.041240357 0.036847644 0.08324052 -0.021726772 -0.02377189
0.08601121 -0.066517755 -0.062440164 -0.004400678 -0.027401835 0.017306529 -0.061471347 0.08312433

hidden5.bias f4 [64]
00000000: 8054 843d b00a e33b f5bd 4abd 20d0 e0bc
00000010: 6a68 9d3d fc6b 32bc 0e72 233d 1dc9 563d
00000020: f64a bf3c d0c5 05bc 9c0c 423d 1e82 43bc
00000030: 133a 003d daf2 073c 5516 ed3c c299 d6bc
00000040: 9463 9dbc d20a 163d de0a 8e3d 88e5 383d
00000050: 345d 00bd 56d5 6d3d d499 463d b832 6f3d
00000060: 5d19 7b3d 1a23 5c3d 2d0b 803d 359c 86bd
00000070: 481d 7bbd c72f 6dbc fc95 ffbc 3578 8a3b
00000080: 94e8 a7bc 2af8 0bbd 1227 63bd efed 6dbd
00000090: 24a0 97bc 12d9 563d dab6 f8bc 304c 9dbc
000000a0: ba1a d93c 8cc4 a43d f10a c0bc 3904 8e3d
000000b0: 37eb 4f3d 7fa4 b7bc 808c 0cbd 2f61 91bd
000000c0: 7fd1 32bd 443d 50bd 53e1 8fbd 1dbc bfbc
000000d0: cdce 8fbb 1d2c 03bd d718 17bd bfdf 343d
000000e0: 5831 823d 07e4 b0bd d8fa ae3d a857 5bbd
000000f0: 9305 a9bd 7a6d ddbc cee2 6ebd aca1 943b
0.064614296 0.0069287643 -0.049497563 -0.027442992 0.07685931 -0.010890003 0.039903693 0.05243789
0.023351174 -0.008164838 0.047375306 -0.011932878 0.031305384 0.008297646 0.028941313 -0.026196364
-0.019212522 0.036631413 0.069356665 0.045140773 -0.031338885 0.05806478 0.048486546 0.05839798
0.061303485 0.053744413 0.062521316 -0.06572763 -0.06130722 -0.014476723 -0.031199448 0.0042257556
-0.020496644 -0.034172215 -0.055457182 -0.05808824 -0.018508978 0.052453108 -0.030360628 -0.019201368
0.026502002 0.08045301 -0.023442717 0.06934399 0.050761428 -0.022417305 -0.03431368 -0.070986144
-0.043656822 -0.050839677 -0.07025399 -0.02340513 -0.0043886662 -0.03202449 -0.036888923 0.044158693
0.06357068 -0.08637243 0.085439384 -0.053550392 -0.08253016 -0.027029742 -0.058321767 0.0045358744
