script/Classify/net.pkl (torch_old, 10989 bytes, 12 tensors)

weight f4 [10, 32]
000000 05 76 c2 3c 4c 54 a7 be 51 a4 96 3d 1d b8 32 3e
       0.023737917 -0.326815 0.073555596 0.17453046
000010 8b 35 26 3d 2b 4a 4f be 00 da 91 bd 42 12 e6 3b
       0.040578406 -0.20243137 -0.07121658 0.0070212195
000020 88 6c d8 3d e5 5f 77 3e a0 ca 37 3e 50 26 a6 be
       0.10567576 0.24157675 0.17948389 -0.32451105
000030 6b 4e 42 be 99 0d ac 3e 1b 8d 39 3e cd 1d 88 3e
       -0.18975227 0.33604124 0.18120234 0.26585236
000040 7a da c3 be 8b e9 78 be 34 f4 9f 3c fe f9 2c 3e
       -0.38252622 -0.2430784 0.019525625 0.1689224
000050 4f 14 67 be 8f dd f0 3d 1e 2f 60 bd 49 5e 83 3c
       -0.22566341 0.11761009 -0.054732434 0.01603617
000060 7f 50 08 be 46 15 c4 3e 8a 55 0c 3f a1 b0 da be
       -0.13311957 0.3829748 0.5481802 -0.42712882
000070 f0 7d b1 bd 25 ae e0 3e 10 2a 21 3e 77 e3 8f 3e
       -0.08666599 0.43882862 0.15738702 0.2810323
000080 07 61 6a be 27 10 cd 3e 73 cd 54 3e f9 d4 94 3d
       -0.22888575 0.40051386 0.20781498 0.07267184
000090 4c 9d 9a 3e 00 45 28 3e a4 bb c2 3e 53 8c a7 bd
       0.30198133 0.16432571 0.38033783 -0.081810616
0000a0 76 3f c3 bc 40 e3 c2 bc 73 5f 51 be 75 ff eb 3e
       -0.023833971 -0.023790002 -0.20446567 0.46093336
0000b0 57 7a 14 bf 92 b1 9b 3c 39 a3 f1 be 4e 73 a4 3e
       -0.57999176 0.01900557 -0.47194842 0.3211922
0000c0 bd 0a 99 be 7d 60 ed 3e c5 16 d9 3c 72 59 f5 3b
       -0.29891005 0.46362677 0.026500115 0.0074874694
0000d0 e1 98 94 3e 1d f9 cf 3d 13 84 8e 3e 5b c0 02 be
       0.29022887 0.101549365 0.2783514 -0.1276869
0000e0 ee 4f 58 bc 0f 31 d0 bd 66 72 10 bd 83 2a ca 3e
       -0.0132026505 -0.10165607 -0.03526535 0.3948556
0000f0 77 4d cd be db ee b9 bc 25 3a ee be 63 db 4c 3e
       -0.40098163 -0.022696903 -0.46528736 0.20005564
000100 dd 75 9e be de 11 a1 be 33 c2 0a 3d 27 73 97 be
       -0.30949298 -0.31458944 0.03387661 -0.29580042
000110 95 7f 85 be 21 6f bb 3e 40 71 f0 bd 21 c7 ac 3d
       -0.260739 0.36608222 -0.11740351 0.08436418
000120 89 83 c6 3e 74 cd c4 3d 88 7a 9b 3b 62 05 2d be
       0.38772228 0.096094996 0.0047448315 -0.16896585
000130 f7 09 8c 3e 97 1a 6e bd 02 0c f9 bc 5d bc aa be
       0.27351353 -0.058130827 -0.030401234 -0.33346835
000140 73 eb 9e bd 6d 37 d2 3d 02 e2 59 3e f7 da cc be
       -0.07759752 0.10264478 0.21277621 -0.40010807
000150 ce ab b8 3c fc 03 a7 3e 80 c3 80 3e b6 2a a0 3d
       0.02254286 0.32620227 0.25149155 0.078206465
000160 3f 2f a9 3e 79 4c 83 be 0b 4f 70 be 5d 59 33 3e
       0.33043858 -0.25644282 -0.23467652 0.17514558
000170 65 dd 23 be ba 5f 86 bd 45 ee 28 be d6 f8 40 3e
       -0.16002424 -0.06561227 -0.16497143 0.18844923
000180 8b 16 f6 3d a7 51 22 3e bc e3 f0 3d aa 9c 2e 3f
       0.120160185 0.1585146 0.11762187 0.682078
000190 1c 2a da 3e d0 df dd be 3d de 29 3e 04 f1 47 be
       0.42610252 -0.43334818 0.16588683 -0.19525534
0001a0 d3 ea 55 be 2e f1 83 3d 8d dc 6e 3e ed 26 fd be
       -0.2089036 0.06442486 0.23326321 -0.4944376
0001b0 dc f5 d0 be ee a4 e6 3e 1b b4 cc 3c 41 3d 2d 3f
       -0.40812576 0.45047706 0.024988225 0.6767159
0001c0 6c ed 0c be f7 7d 69 be 11 b0 7a be 13 9b 89 bd
       -0.13762444 -0.22801958 -0.24481227 -0.06719031
0001d0 9f 8c 36 be 15 17 96 3d 17 f7 82 bd b1 95 9b bd
       -0.1782708 0.07328621 -0.06394785 -0.07596911
0001e0 f4 6a ca bd d2 c1 22 3e 01 53 9c 3d 8b 19 bd 3d
       -0.09883681 0.15894249 0.07633019 0.092333876
0001f0 df 55 ce 3e 20 b7 56 be dc 47 28 3e f9 d8 a2 be
       0.4029989 -0.20968294 0.16433662 -0.31806162
000200 6f 01 74 3e 4b c5 28 3e 2e db 8f 3e 2c 4b bf bc
       0.23828672 0.16481511 0.28096908 -0.023351274
000210 45 b5 86 bd 5b 7c 67 bd 72 77 70 3e e0 c4 04 3e
       -0.06577543 -0.05651508 0.23483065 0.12965727
000220 ce c6 22 3e e6 6b 56 be cc a0 3d ba 5f ea bf be
       0.1589615 -0.20939597 -0.00072337384 -0.37483498
000230 01 07 e9 be bd 18 c6 3e 9b a0 33 be ef fa 88 3e
       -0.45513156 0.3869075 -0.17541735 0.26753947
000240 9e 2b 97 bd 0d 24 a7 bd 80 e9 0e 3e d8 da 27 be
       -0.07381366 -0.08161173 0.1395626 -0.16392076
000250 1c 27 77 be 2a 6f a9 3e c9 19 3e bd ad ce 2b 3f
       -0.24136013 0.33092624 -0.04641131 0.6711224
000260 36 f6 bd 3e 2b fe 52 bd 86 23 c7 be 8a ff 1a 3f
       0.37101907 -0.051511925 -0.3889429 0.6054617
000270 97 3b 95 bd 52 66 38 be e9 09 94 be 24 00 0c be
       -0.072867565 -0.18007782 -0.2891381 -0.13671929
000280 f3 d4 55 be 38 22 05 be 38 57 c7 bb b5 15 95 be
       -0.20882015 -0.13001335 -0.0060833953 -0.29118124
000290 c8 56 31 be 50 29 5d bd e1 a2 d7 3d 07 ed 97 be
       -0.1731826 -0.053994477 0.105291136 -0.29673025
0002a0 e8 2d 86 3d 47 43 10 3e 8e 1e 50 3d 3a 75 07 be
       0.06551725 0.14088164 0.05081039 -0.13228312
0002b0 79 2b 3b 3e 19 c2 97 bd ff 65 04 3f 98 99 94 be
       0.18278302 -0.07410068 0.51718134 -0.29023433
0002c0 a2 a2 e2 bd 78 16 a9 bd 62 9f b9 3d 2b cd d1 3c
       -0.11066176 -0.08256239 0.09063603 0.025610527
0002d0 bc 86 b1 3d f5 be e7 bb 75 8a 91 3e f9 de 3d 3e
       0.08668277 -0.0070723244 0.28425947 0.18542089
0002e0 c4 81 de bc 6b e3 b0 ba cc 3a 19 be 1b 7f 3f be
       -0.027161486 -0.001349551 -0.14963835 -0.1870083
0002f0 13 8a 99 bd 45 1b 94 3e 42 02 0a bd 18 9c 92 3e
       -0.07497039 0.28927055 -0.03369356 0.28634715
000300 9e 9d 70 be 24 7d 7b be a9 33 96 3d 08 16 64 bf
       -0.23497626 -0.24559456 0.07334072 -0.89096117
000310 8e 02 9f be fb 94 9b 3e 78 f4 66 be 3b d9 ab 3d
       -0.31056637 0.303871 -0.22554195 0.08391043
000320 2d 5c 6e 3e 9a 26 a2 3d b7 b2 b2 bc a1 24 93 3d
       0.2327735 0.07917519 -0.021813734 0.07184721
000330 93 7d 3b 3e 3e e2 78 be 90 e3 c3 3e 56 f8 ff be
       0.18309622 -0.24305055 0.38259554 -0.49994153
000340 c2 f2 67 be 2e 27 5c be 6e 07 9c bd fa c3 47 bf
       -0.22651199 -0.21499321 -0.076186046 -0.7803341
000350 d7 22 bc be e8 64 2d 3e 6c cc 31 be 5e 6c 04 3e
       -0.3674533 0.16933024 -0.17363137 0.12931964
000360 5a 81 1b 3e d4 13 01 3e ef e8 54 3d 7c 18 eb 3d
       0.15186062 0.1260522 0.051979955 0.114792794
000370 9f bb 8e 3e e6 ee 94 be d2 fe aa 3e 8a 7e 1a bf
       0.2787752 -0.29088515 0.33397537 -0.60349333
000380 95 61 1d be 67 68 00 bd 0a 8e f8 3c 7c 22 80 be
       -0.15369256 -0.031349566 0.030341167 -0.2502631
000390 32 e1 65 3d 27 23 82 3e 6c 21 fc 3e b0 78 5a be
       0.056122966 0.25417444 0.4924425 -0.21335101
0003a0 29 8b a1 3e 57 1a 72 be 57 0f b5 be 11 84 8f be
       0.31551483 -0.2364286 -0.35363266 -0.28030446
0003b0 62 f3 cb bb 89 f2 16 3e 0c 57 ab 3c 4a 42 3d 3e
       -0.006224082 0.14740957 0.02091553 0.18482319
0003c0 cb 36 fb bd 32 eb 33 bd 89 de 76 3b 65 fc 42 be
       -0.1226631 -0.04392547 0.0037669262 -0.19041593
0003d0 65 48 84 3d 68 a7 5a 3e e7 71 c0 3e 98 56 53 be
       0.06459121 0.21352923 0.375869 -0.20638502
0003e0 a3 09 ba 3e 56 62 93 be 6c 10 b6 be 9a 65 de bd
       0.36335477 -0.28785962 -0.35559404 -0.10859223
0003f0 5b 29 04 3e f7 2a 00 3c 18 5f 50 3d 1b 31 06 3d
       0.12906401 0.007822744 0.05087194 0.032761674

bias f4 [10]
000000 6a 2f 0d 3e 37 4c c5 3b ed 17 55 3e a1 17 8e 3d
       0.13787618 0.0060210484 0.20809908 0.069381006
000010 e1 7c 96 3e 9a f3 88 bd 86 a8 8d bc 65 46 6d bd
       0.2939215 -0.06687088 -0.017292272 -0.05792846
000020 f8 ce 68 3e 18 82 31 be
       0.22735202 -0.17334783

weight f4 [20, 10]
000000 20 c5 f0 3d 68 32 00 3f d6 88 5f bd 8d ee 3f 3a
       0.117563486 0.50076914 -0.054573856 0.00073216186
000010 0d 8c bd 3e f0 c3 91 be 62 7e 4a 3e 70 43 35 be
       0.37020913 -0.284698 0.19774774 -0.17701507
000020 b7 54 53 3e c3 40 09 be 41 96 94 3d 1b 85 2a bf
       0.20637785 -0.13403611 0.07255221 -0.6660935
000030 c9 f0 e7 3e c1 05 17 be db 1f ad 3e 12 ec 0e 3e
       0.45300892 -0.14748289 0.33813366 0.13957241
000040 0b f6 00 bf e4 7f 10 bf 73 e0 3f 3e 50 44 17 3f
       -0.5037543 -0.56445146 0.18737964 0.5908861
000050 ae 61 49 3e 6b 50 17 3f 51 b6 d1 bd d4 24 3e be
       0.19666168 0.59107083 -0.10239852 -0.18568736
000060 eb fd b1 3e 02 ee 0f be 8b 69 54 3e 32 43 9a 3e
       0.34764037 -0.14055637 0.20743386 0.3012939
000070 ac 94 8d 3e 05 05 28 bf 77 04 05 3e ce 91 11 3e
       0.2765249 -0.6563266 0.12989984 0.14215776
000080 43 25 25 3e 8b aa 4f bf 71 7f ca bd b2 e3 83 3e
       0.16127495 -0.811196 -0.09887589 0.25759655
000090 4c 6b 75 be 7e 20 54 be e1 f0 de bc 3f 2f 3a 3e
       -0.23966712 -0.2071552 -0.02721447 0.18182085
0000a0 91 bc 00 3f 02 93 4c 3e b8 06 50 be c9 80 99 3e
       0.5028773 0.19977954 -0.20315063 0.29981068
0000b0 33 a4 0b 3f 01 a3 2e 3a b7 d8 c6 3e fd 1a 88 3e
       0.54547423 0.0006661863 0.38837215 0.2658309
0000c0 aa f0 a8 bd 1c 10 99 be 27 12 48 3e be 36 ac be
       -0.08249028 -0.29895103 0.19538175 -0.33635515
0000d0 0b f3 e6 3e 1b b8 77 3d 5c 61 9b 3e 17 58 ae 3e
       0.45107302 0.06047831 0.30347717 0.34051582
0000e0 af 6c 89 bd 5f 7d 66 bf 4a d0 6e 3c a2 51 0b 3f
       -0.06710183 -0.9003505 0.014576027 0.54421437
0000f0 e1 0d 60 3e 36 b8 1c 3e 31 8e ee 3e 3a 06 37 bf
       0.21880294 0.15304646 0.46592858 -0.71493876
000100 bc 82 aa 3e 7c ab 71 3e 8e 66 03 3f ba 49 d9 be
       0.33302867 0.23600572 0.5132836 -0.4243906
000110 a0 eb eb bd f7 ae 81 3e 98 09 0c be cf d8 13 be
       -0.11519551 0.253288 -0.13675535 -0.14438175
000120 eb 7d b0 3e b0 fb 3e 3f bd ff 90 3e 6c e6 f2 bb
       0.34471068 0.74602795 0.28320113 -0.0074127223
000130 5f da 8e 3e a1 13 01 be a7 92 b6 bd a2 0c 92 be
       0.2790098 -0.12605144 -0.089146905 -0.28525263
000140 14 83 b6 bd 83 ca 37 be 9c cd e6 3e 36 df 23 3d
       -0.0891172 -0.17948346 0.45078743 0.040007792
000150 a5 8c 0a bd 26 4c 9a 3e 78 ab b0 be e7 48 07 bf
       -0.033825535 0.30136222 -0.3450582 -0.52845615
000160 5e ab 06 3d 7e 73 2d 3f 96 86 43 be 50 c6 96 bc
       0.032878272 0.6775435 -0.19094309 -0.01840511
000170 5a a8 6d be 28 a5 08 bd 9e 66 0e be 35 40 80 3e
       -0.23208752 -0.03336063 -0.13906333 0.25048986
000180 75 1b 97 3e 28 a0 50 3d c3 b4 71 be 5e e9 7a 3e
       0.29513136 0.050933987 -0.23604111 0.24503085
000190 66 05 c2 bd 24 fb 08 bf 17 61 82 3e 7a 31 3c be
       -0.09473686 -0.5350821 0.254647 -0.18378249
0001a0 93 03 0b 3e a4 f4 ae bc b3 d6 bc 3d cf 17 05 bf
       0.13575582 -0.021356888 0.09220638 -0.51989454
0001b0 31 fb 5e 3e 32 72 bc 3e d5 19 f1 3c e0 0e d2 3c
       0.2177551 0.36805874 0.029431263 0.025641859
0001c0 a8 da 24 3e 50 79 7e be 4d b5 aa bd a8 57 9a be
       0.16099036 -0.24850965 -0.08335362 -0.30145
0001d0 36 7f 91 3e 84 46 93 3d 39 10 8c be a4 60 d0 bd
       0.28417367 0.07191184 -0.27356127 -0.10174683
0001e0 83 1d 81 be e4 93 9c be ca 39 84 be 27 93 28 3d
       -0.25217828 -0.30581582 -0.2582534 0.04115596
0001f0 ef 4b 2c be 16 be 32 3e e5 88 c7 3d e5 63 48 3e
       -0.16825841 0.17455325 0.097429074 0.19569357
000200 c1 5a 13 be d3 8a 95 3d cf b2 d4 3e 13 a0 40 bf
       -0.14390089 0.07301869 0.4154267 -0.75244254
000210 05 6d c9 3e 47 eb 96 3e 2d 3c e7 bd 10 2c e8 3d
       0.39340988 0.29476377 -0.112907745 0.11336529
000220 86 b6 d5 be 91 c1 a1 be 2a 0e ac bd 6d 68 b8 3e
       -0.41740817 -0.31592992 -0.08401139 0.3601717
000230 64 fe ab 3e 55 86 ad be e2 c4 fe 3e 9a d4 88 3e
       0.33592522 -0.3389155 0.49759585 0.26724702
000240 a3 7f 2d 3d a9 bb a8 3e 70 46 54 be 88 5c 1b bf
       0.042358052 0.32955673 -0.20729995 -0.60688066
000250 fd 1d 24 be 66 f3 b1 3e ee 3a b9 be 71 c2 28 3f
       -0.16027065 0.3475601 -0.36177772 0.65921694
000260 64 91 9c 3e fa 2a 14 bf 84 4f f6 3e 36 9e df bd
       0.30579674 -0.5787808 0.4810754 -0.10918848
000270 a5 04 e0 3e 5b b2 34 bf 1f db 82 3e 0f 22 da be
       0.43753543 -0.7058465 0.255578 -0.4260411
000280 f1 15 8c be 3b 37 6f be 64 27 70 3e f9 ea 19 3f
       -0.2736049 -0.23360913 0.23452526 0.60124165
000290 81 6b 9f 3e b1 3b 29 3e 9c 91 08 bf 68 c9 97 be
       0.31136706 0.16526677 -0.5334718 -0.29645848
0002a0 64 61 84 be 8c ab 32 3f d0 73 cb 3e ec 2e 83 bf
       -0.25855553 0.6979301 0.39736795 -1.0248694
0002b0 3a 7c 3f 3d 9d 05 92 3e b7 fb b1 be 83 a5 c5 3e
       0.04674933 0.28519908 -0.34762356 0.38602838
0002c0 12 3a 9f be 50 bb 23 3f 22 7f c8 3a 67 56 ea bb
       -0.31098992 0.6395769 0.0015296678 -0.0071514132
0002d0 f8 08 ce 3e 6e 82 11 bf b6 aa a8 be ec da 3a 3f
       0.40241218 -0.56839645 -0.32942742 0.729903
0002e0 56 27 f7 be e8 da 5b 3e 72 98 23 be a7 1d 0a 3f
       -0.48272198 0.21470225 -0.15976122 0.53951496
0002f0 e5 ee 5f 3e 6e 51 0a bf 1e 69 17 3f d8 32 08 bf
       0.21868475 -0.540305 0.5914477 -0.5320258
000300 79 8f 54 be 3d 27 26 3f ca 8a 37 3e 98 5e 04 3f
       -0.20757855 0.6490362 0.17924038 0.5170684
000310 40 08 04 bf 3e 48 44 3f c4 ce 7e bd da 82 4b 3f
       -0.5157509 0.7667273 -0.062208906 0.7949654

bias f4 [20]
000000 22 30 09 3e 61 67 72 3e 21 4f c8 3d b8 29 6d bd
       0.13397267 0.23672248 0.09780718 -0.057901114
000010 f3 dc b5 3e e4 f6 74 3e 99 c8 c1 3e d7 38 a4 be
       0.35520133 0.23922306 0.37848356 -0.32074615
000020 54 47 96 3d 19 41 77 be ef 6f 6b 3e 5d ba 91 be
       0.073378235 -0.24145927 0.22991918 -0.28462496
000030 a0 5a 8b 3c ee e5 0d 3e 81 05 37 be 78 c8 e3 bd
       0.017010987 0.13857242 -0.17873193 -0.11122221
000040 ac 72 89 3d fc ca a9 bc c2 69 8d 3e 93 17 d5 3d
       0.06711325 -0.020726673 0.2761975 0.10404887

weight f4 [30, 20]
000000 1d 63 f2 bd 4a da 8a 3e 54 1a 67 be 77 7c ca 3e
       -0.118353106 0.27119666 -0.22568637 0.39548084
000010 4a 82 74 3d 70 7a e0 bc 87 02 a1 3e fc 35 32 3f
       0.059694566 -0.027402133 0.3144724 0.69613624
000020 88 b4 82 3e bf 1f 02 be f3 8c 56 3d 84 3a 1a bd
       0.2552836 -0.12707423 0.052380513 -0.03765346
000030 6a b9 af bd 1c 06 74 3e f8 70 89 3e 2d 29 ae be
       -0.08580287 0.23830456 0.26844 -0.3401579
000040 3e 62 88 3e 63 64 e6 3d c2 26 c0 be 7f 17 d5 3d
       0.26637453 0.11249616 -0.3752957 0.10404872
000050 2f fd 48 3e 4c e0 ed 3e 48 d2 d0 be d6 d5 07 3f
       0.19627832 0.46460187 -0.40785432 0.5306066
000060 48 f1 b4 bc f4 b6 55 3e d2 8b fb 3e 80 76 e0 3e
       -0.022087708 0.20870572 0.49130112 0.43840408
000070 17 56 44 3e f8 b6 01 be 60 f5 1c 3e 94 92 62 be
       0.19173466 -0.12667453 0.15327978 -0.22126228
000080 90 79 a8 3d 84 c6 c6 3e 6e 8c aa 3e 79 d4 87 be
       0.08226311 0.3882333 0.33310264 -0.2652929
000090 9d 5d fa 3e 30 21 1f 3e 92 ee a5 3d 8d 7e 33 3e
       0.48899546 0.15540004 0.08102144 0.17528744
0000a0 ce eb 1d be a5 70 6d 3e 91 b5 10 be 59 b6 d7 3e
       -0.15421984 0.23187502 -0.14131762 0.42131308
0000b0 22 81 a0 3d 3d 48 9f 3e 80 25 8d 3d cd 91 94 3e
       0.0783713 0.311098 0.06891918 0.29017487
0000c0 77 7d e3 3e 80 56 28 bc 24 42 e7 3c d8 bb f1 bc
       0.4443166 -0.010274529 0.02822978 -0.029508516
0000d0 44 7d f9 bd c4 b5 52 3e c7 81 2c 3e 71 81 fa be
       -0.12182096 0.2057715 0.16846381 -0.4892688
0000e0 93 4b af 3e 75 70 70 bd ac f0 3d be 74 a6 7e 3e
       0.34237346 -0.058700997 -0.1854884 0.24868184
0000f0 31 9c 45 bc 25 e1 49 3d 66 95 1f 3c 32 0a 43 be
       -0.012061165 0.04928698 0.009740209 -0.19046858
000100 2d 3d 23 3e 5f 06 a7 bd 21 76 da 3d dc 86 58 bd
       0.15941305 -0.08155512 0.106670626 -0.052862987
000110 24 5e 0b be da 62 17 be cf 3c 29 be d0 0c 87 3c
       -0.1361013 -0.14783803 -0.16527103 0.016485602
000120 23 3b e9 bd d7 16 fe 3b 89 a2 b9 bd 5d 89 60 be
       -0.113882326 0.0077541876 -0.09064204 -0.219274
000130 58 7a aa bc e9 63 fb 3c 38 61 44 3d 1d 6c a8 bd
       -0.020810291 0.03068729 0.047944278 -0.08223746
000140 b9 bf b6 bd 09 02 7f 3e c0 3e 57 be ca 25 14 3f
       -0.08923287 0.2490312 -0.21020031 0.5787016
000150 50 c8 62 be c7 93 bd 3e c3 af 6d 3c cc ff 02 3f
       -0.22146726 0.37026808 0.014507237 0.51171565
000160 cf ca 08 3e 7d b8 4d be f3 be 61 3e c0 00 56 3e
       0.13358615 -0.20089908 0.22045498 0.20898724
000170 d4 f6 22 3d 9e 4f e8 3e 90 e2 14 3e 07 cf b4 be
       0.039786175 0.45373243 0.14539552 -0.353142
000180 3a 31 19 3f e5 d7 4d bd f8 9c 8c be 2c 7c 2c 3d
       0.5984074 -0.05025472 -0.27463508 0.042110607
000190 aa bc 71 bd 53 9f d2 3e 19 c0 a8 be 90 40 4d 3f
       -0.059017815 0.4113718 -0.3295906 0.8017664
0001a0 87 67 99 bd ff 32 1a 3e 71 77 87 3e ef 70 08 3d
       -0.074904494 0.15058516 0.26458314 0.033310827
0001b0 ca d9 e0 3e c8 cd f6 3d 95 d8 cd 3e a5 6c 12 3e
       0.4391616 0.120509684 0.402043 0.14299257
0001c0 18 df 18 bd c6 14 14 3f 7c cd bc 3e 25 8c a6 be
       -0.037322134 0.578442 0.36875522 -0.32528797
0001d0 b4 2d 8f 3e 33 e0 c3 3e a0 51 96 bc 95 c8 b8 3e
       0.27964556 0.38256988 -0.018349469 0.36090532
0001e0 93 58 e8 bd 1a 45 3a be 50 12 5d be 9d 9b 24 be
       -0.11345019 -0.18190423 -0.21589017 -0.16074987
0001f0 b0 2f 3b 3d 0c 21 8a bd 89 d5 e2 3d fd ef 2b bd
       0.045699775 -0.067445844 0.11075885 -0.041976918
000200 1d 64 a6 3c 59 7c e2 bd 34 50 c5 bd 7a e3 57 3e
       0.02031141 -0.11058874 -0.09634438 0.21082869
000210 d9 ce fe bd aa 1b 7d be e2 cf 0d be 77 9c 33 3e
       -0.12441797 -0.24717584 -0.13848832 0.17540155
000220 1c fb 35 3e 54 e1 08 be 28 ea cd 3d 4e 74 28 be
       0.17771572 -0.13367206 0.100544274 -0.16450617
000230 f6 02 02 3e cc 10 8f bd 29 54 9b 3e a4 9e 05 bf
       0.12696442 -0.069856256 0.30337647 -0.5219519
000240 62 cb 8d 3d 4b 79 e3 3d a4 f4 9d bd ed 5c bb be
       0.06923558 0.11107119 -0.07712677 -0.36594334
000250 3d 53 9a be c0 7d b0 3c c5 84 a9 bd 2b e5 0d be
       -0.3014163 0.021544337 -0.08277277 -0.13856952
000260 90 b8 ac 3d 37 a0 37 3d 0a 00 71 3d 8d 3a f0 3e
       0.0843364 0.044830527 0.058837928 0.4691967
000270 ee b4 ab be eb 5f c4 be 1e 76 44 be 6b ce 61 3e
       -0.33536476 -0.3835443 -0.19185683 0.22051398
000280 f0 83 35 3e c5 e5 17 3e 51 0c b6 3e 0f 53 3f bf
       0.17726111 0.14833744 0.35556272 -0.7473611
000290 98 af 7b 3e 3b 30 b5 bd 22 43 e6 bc d0 ff 06 bf
       0.24578702 -0.0884709 -0.028108183 -0.5273409
0002a0 a6 0e a8 be ae 78 9b bd ba 11 3d 3e 16 ef 97 bd
       -0.32823676 -0.07591377 0.18463793 -0.07418649
0002b0 cf 1d e2 3d 31 c5 59 be b6 7e 70 3b ce a8 bd 3e
       0.11040842 -0.21266629 0.003669662 0.3704285
0002c0 65 c6 bb be 9a 83 90 be cb f9 48 bd ac b2 3a 3d
       -0.366748 -0.28225404 -0.049066346 0.04558055
0002d0 fc 54 07 3e 55 36 d3 bd 4f 99 49 be 3e 1f 5d 3e
       0.13216013 -0.103130974 -0.19687389 0.21593949
0002e0 06 1a e1 3d ce 9b 4d be df 25 ab bc 46 de ab bd
       0.10991292 -0.20078966 -0.020892082 -0.08392005
0002f0 88 66 05 be 80 2f 47 3d 97 5d 56 be 70 44 b7 3c
       -0.13027394 0.048629284 -0.20934139 0.0223715
000300 18 a2 14 be ca e5 08 3e 23 f2 e6 3c 48 f7 cf bd
       -0.14514959 0.13368908 0.028191632 -0.10154587
000310 e6 65 3a 3e 35 d0 32 3e 87 a6 28 bd 87 c4 d8 bd
       0.18202934 0.17462237 -0.041174438 -0.105843596
000320 c9 4c ce 3d 6f 53 2e 3e 5c 57 92 bd 0c d2 a3 3d
       0.10073239 0.17024015 -0.07145569 0.07999048
000330 33 91 43 bc 48 54 18 3d 53 55 87 3d a5 9d 29 be
       -0.011936474 0.037189752 0.06608071 -0.16564043
000340 d1 37 43 be 1c 17 b4 3d 05 48 2b be 90 86 25 be
       -0.19064261 0.0879347 -0.16726692 -0.16164613
000350 e4 db 36 3e 7b d0 8d bd a8 13 a4 3d c4 88 c5 bd
       0.17857319 -0.0692453 0.08011562 -0.096452266
000360 f8 36 47 be b7 f2 39 be 93 05 49 be 13 85 3f be
       -0.19454563 -0.18158995 -0.19631033 -0.18703108
000370 7d 46 8a 3e 5e ed 20 3e 69 6b 1b 3e 66 68 0a bf
       0.27006903 0.15715548 0.15177692 -0.5406555
000380 a7 f8 89 3e 60 da da 3c 8e 41 66 3d e6 3c a3 be
       0.2694752 0.026715457 0.05621486 -0.318824
000390 5e dd 35 be 20 e9 e5 bd 94 de 70 3d 60 b7 32 be
       -0.17760226 -0.11226106 0.058806017 -0.17452765
0003a0 8d 74 31 be c9 3d 56 3e ec fc 00 be 72 f2 53 3d
       -0.17329617 0.20922007 -0.12596482 0.051744886
0003b0 57 89 68 be f4 8c 93 be a4 f2 51 be 39 73 0f be
       -0.22708641 -0.28818476 -0.20502716 -0.14008798
0003c0 c3 4b ae be 0a ba a6 3e a4 76 07 bf 92 c9 cc 3e
       -0.34042177 0.32563812 -0.52915406 0.39997536
0003d0 e0 f6 92 be 45 cf 7a 3e d8 be cb 3c 17 3b 59 3e
       -0.28703976 0.2449313 0.024871275 0.21213947
0003e0 a4 b3 03 3f 46 70 00 be d9 47 97 3e 94 4e 01 bd
       0.51445985 -0.12542829 0.29547003 -0.03156908
0003f0 3d d1 35 bd 75 39 13 3f b7 c9 b2 3e 3d 91 12 bf
       -0.044389 0.5750955 0.3491952 -0.57252866

bias f4 [30]
000000 c2 59 ef bd ec 9b 51 3e c3 13 24 3e c7 43 82 be
       -0.11687042 0.20469636 0.16023163 -0.25442335
000010 32 47 dd 3d 3f 33 23 3d a9 9c 18 3e 8a 95 de 3c
       0.10804595 0.039843794 0.14903511 0.027170915
000020 8e 7d 3d 3e 3b ee 2b be 6a 7f c1 bd 37 f4 dc 3d
       0.18504927 -0.16790096 -0.094481304 0.10788768
000030 d1 ab 3a 3e c9 dd 19 3e 57 91 ad bc a7 86 08 3e
       0.18229605 0.1502601 -0.021187468 0.13332616
000040 2a 17 b5 bd 2e 29 0f 3d e2 60 39 be a7 9f a3 3c
       -0.08842309 0.03495138 -0.18103364 0.01997359
000050 30 df 48 bd c1 8b 5e 3e 0e 90 64 3d e8 51 63 3e
       -0.049040973 0.21733 0.055801444 0.22199214
000060 4a 8e 72 bc 05 0b ca 3d 0e 25 29 3e e0 a3 a8 3b
       -0.014804432 0.09865383 0.16518041 0.0051464885
000070 e0 fa 2e 3d 7d 1b 4e 3d
       0.04271972 0.050319184

weight f4 [20, 30]
000000 39 c4 8c be 9a c6 82 bd 8e 31 86 bc 02 29 1a be
       -0.27493456 -0.063855365 -0.016381051 -0.15054706
000010 fd a7 aa be ee c2 9a 3e 82 18 1e be 3c a3 d0 be
       -0.3333129 0.30226845 -0.15439036 -0.40749538
000020 66 1a 1d be 51 05 4e bd 29 42 a9 bd b4 ea 02 be
       -0.15342101 -0.05029804 -0.08264572 -0.12784845
000030 af 48 3c 3e d6 07 60 3e 53 5f d8 3c 23 18 09 bd
       0.18387102 0.21877989 0.026412642 -0.033470284
000040 60 b0 b6 3b 84 81 45 bf d2 0b 29 3f 07 47 a0 bd
       0.0055752248 -0.7715075 0.6603366 -0.078260474
000050 88 56 3a bd 7c 14 05 bf 60 1f fb 3d 59 24 ea be
       -0.04549268 -0.5198438 0.12261844 -0.45730856
000060 f7 8b 64 3e 80 49 0c 3b 08 33 b1 3e 3a bd 0a 3e
       0.22319017 0.0021406114 0.34609246 0.13548747
000070 d7 3c 58 3e c5 33 bc 3e 1b 87 96 3e ea 62 d0 3d
       0.21116959 0.36758247 0.29399952 0.10175116
000080 f1 00 18 3f 78 84 35 3e 52 98 e2 3e 36 43 ec bd
       0.59376436 0.17726314 0.44256836 -0.11536257
000090 7c 4a 19 be ff f2 30 3e 13 ab ff bd a0 08 23 bc
       -0.1496982 0.17280196 -0.12483802 -0.009950787
0000a0 40 0f a0 bc ba 78 96 be 4c 10 ba be e4 0c 47 3f
       -0.019538522 -0.29388982 -0.3634056 0.77754045
0000b0 b8 7a df 3d ca c8 1f be 88 00 0f be f4 40 5b 3f
       0.109120786 -0.15603939 -0.13965046 0.85645986
0000c0 46 c7 55 bf f1 38 a2 bd e8 e7 18 3d 46 24 de be
       -0.8350719 -0.07921017 0.037330538 -0.4338705
0000d0 fc 63 06 be e0 9d 6a bf 11 b1 66 bf 10 c3 06 bd
       -0.13124079 -0.9164715 -0.9011393 -0.03290087
0000e0 3f 1c 04 be 68 d2 f6 bc 30 ff 3a bf a9 d9 77 3e
       -0.129014 -0.030129626 -0.73045635 0.24204125
0000f0 f3 de 12 be e5 b3 03 be 58 ac ac 3c de 01 0c be
       -0.14342861 -0.12861593 0.021078274 -0.13672587
000100 20 3c bb 3d 00 4f 7c 3b b5 cd 17 be 3c a3 33 bd
       0.09142327 0.0038499236 -0.14824565 -0.043856844
000110 7a 48 0e 3e 4b 43 a0 bd 3c cf 24 3d 60 85 ae 3b
       0.13894835 -0.07825335 0.040236697 0.005325958
000120 f2 3d 14 be 8c 5c 77 3d e8 46 08 bd 05 d7 0b be
       -0.14476755 0.060390994 -0.033270746 -0.13656242
000130 e0 02 31 3e 68 6a b5 3c 52 12 fd bd 00 de 76 3a
       0.17286253 0.022145465 -0.1235701 0.0009417236
000140 10 8e 62 3c b0 df fd bd fc 72 2a be e0 6e f1 bc
       0.013827816 -0.12396181 -0.16645426 -0.029471815
000150 ce 15 29 be 92 e8 03 3e 4e 87 b6 bd c5 73 f2 bd
       -0.16512224 0.12881687 -0.08912526 -0.118384875
000160 98 7b 42 3d 1b 7a 00 be 73 5b 31 be 36 5e 91 bd
       0.04748115 -0.1254658 -0.17320041 -0.070980474
000170 c8 7d db 3d e0 2c 8c 3c 9c fd f2 3d 79 9e 12 be
       0.1071735 0.017111242 0.118647784 -0.14318265
000180 9c 3f ed 3d d4 ac c3 3d 6a 07 20 3e ec 92 57 bd
       0.11584398 0.09554449 0.15627828 -0.05263035
000190 0c fd 30 bd a6 f0 d1 bd ee 3b d7 bd 38 1f 9e bd
       -0.043210074 -0.10250978 -0.105094776 -0.07720798
0001a0 c2 f1 3a 3e d3 cd 14 be 1c 94 b8 3d 69 65 16 be
       0.18256286 -0.1453164 0.090126246 -0.14687122
0001b0 1b 53 be bd 52 47 28 be 4c 9a 39 3e 60 b1 fa 3d
       -0.09293195 -0.16433457 0.18125266 0.12240863
0001c0 00 c9 2f 3c 7a 08 72 bd 98 ae cb 3c 24 60 63 bd
       0.0107290745 -0.059090115 0.024863526 -0.05551161
0001d0 d8 35 15 be e0 db c2 bc 20 1e 8f bc 13 17 01 be
       -0.14571321 -0.023786485 -0.01747042 -0.12606458
0001e0 74 2c ff bd b0 8e be bd 8b f1 04 bd 7a d4 d5 bd
       -0.12459651 -0.09304559 -0.032456916 -0.10440917
0001f0 e0 2e cc bd 15 fb 16 be 61 79 43 be 52 05 b6 3c
       -0.09969878 -0.14744218 -0.19089271 0.022219334
000200 23 a0 d3 bd b8 68 b8 bd 80 b7 8c 3b 09 48 1b 3e
       -0.10333278 -0.090043485 0.004294336 0.15164198
000210 aa ca 20 be 61 9e 07 3c f8 07 91 3d 4d 98 d0 3d
       -0.1570231 0.008277507 0.07081598 0.10185299
000220 ee 66 d4 bd 6e 4d 79 bc 5d 80 0c 3e 94 49 5f 3d
       -0.10371195 -0.015216215 0.13720842 0.05451353
000230 97 4c 12 be d3 2f d7 bd 7d e7 36 be 51 e0 f7 bd
       -0.14287029 -0.105071686 -0.17861743 -0.12103332
000240 14 35 03 3e 30 b0 7b bd 7e 7f a1 3d bc 66 31 3d
       0.12813216 -0.061447322 0.07885645 0.043310866
000250 2d f8 18 be 8f 0b fd 3c c3 c4 8f bd d7 ea 38 be
       -0.14938422 0.0308893 -0.07019951 -0.18058334
000260 36 0b 34 3e ce d7 20 be 45 ec 5d be 63 82 08 3e
       0.17582402 -0.15707323 -0.21672161 0.13330989
000270 ec f3 4f 3e d1 24 ba 3e e3 ea 39 3e b5 13 40 3c
       0.20307893 0.36356214 0.18156008 0.0117234485
000280 58 37 8e 3d 5f 7a 43 bd 18 68 35 be bd 71 8d be
       0.0694415 -0.047724124 -0.1771549 -0.27625838
000290 9c e1 31 3d b4 e3 91 3e 70 69 1c 3e 02 bd 14 bf
       0.04342805 0.28494036 0.15274596 -0.58100903
0002a0 a4 2d 8f 3e 2c 48 6c 3d 00 ab 7c 3c 84 be 0b 3e
       0.2796451 0.057686016 0.015421629 0.13646895
0002b0 e8 0a 1c 3d d5 bd 34 be 6a 28 66 3e 8d b2 26 bd
       0.03809634 -0.1765054 0.22476354 -0.040697623
0002c0 cb 5f 85 3e 45 78 fb bd ae 81 5c be 07 27 97 3e
       0.26049647 -0.12278799 -0.21533844 0.29521963
0002d0 1a e3 10 be d1 ca d0 bd aa 29 9b 3e 14 12 57 3d
       -0.14149132 -0.10194934 0.30305225 0.052507475
0002e0 5e 51 0f 3e fd 60 4c 3d 1d 30 18 3e 09 b0 b4 3d
       0.13995883 0.049897183 0.14862104 0.088226385
0002f0 a9 be a9 3c aa 91 87 3d 44 1a e8 bd 5f 59 46 3e
       0.020720797 0.0661958 -0.11333135 0.1937003
000300 05 63 d9 bc a4 86 d5 3e 16 1d 89 3d 17 b3 5f 3c
       -0.026536474 0.41704285 0.06695001 0.013653538
000310 6c 6c e9 3d 69 ea ed 3e 53 57 94 bf f8 da 12 3e
       0.11397633 0.46467903 -1.1589149 0.14341342
000320 80 a0 21 be 90 fa ea be 5e 2b 0c 3e 68 78 20 bf
       -0.15783882 -0.4589429 0.13688418 -0.62683725
000330 c4 39 0b 3f 10 37 a3 3c b5 10 85 3e 8e 41 2b be
       0.5438502 0.019923717 0.2598931 -0.16724226
000340 bc 8c 33 bf 55 eb a4 be 3f 6a d2 3e cf 0f f1 3d
       -0.7013662 -0.32210794 0.41096684 0.117705934
000350 84 a3 c3 3e ec f2 75 3d ab 19 de 3e 22 89 80 3e
       0.3821069 0.06004612 0.43378958 0.25104624
000360 a9 e4 dd bd 8a 34 1c bf 31 50 d7 be 56 29 09 3e
       -0.10834629 -0.6101767 -0.4205337 0.13394675
000370 0d 44 cb bd a3 ba 50 be ee d7 ed 3e fa 04 91 3e
       -0.09925089 -0.20383696 0.46453804 0.2832411
000380 89 a7 2d be 64 bb d5 be 84 37 1e be 33 1c 0e 3f
       -0.16958441 -0.4174453 -0.15450865 0.5551178
000390 d7 5b e9 be b6 c7 03 3d 39 79 17 be 3a e2 c8 be
       -0.4557788 0.03217288 -0.14792337 -0.39235097
0003a0 c4 b9 0d 3e 60 11 ae 3e 22 db e1 be 31 e2 41 3e
       0.13840395 0.3399763 -0.44112498 0.18933941
0003b0 d4 ef f0 be 24 2d cb 3d 55 a4 c4 3e 0b 51 29 bf
       -0.47057974 0.09920719 0.38406625 -0.66139287
0003c0 d0 bc 61 3c 27 d3 86 3d 0c e1 6f 3d f1 46 8c 3d
       0.013777927 0.06583243 0.05856423 0.068494685
0003d0 24 53 8d bd ad 2a db bd a4 f7 bf 3c b2 5a 26 3e
       -0.069006234 -0.10701499 0.023433514 0.16245535
0003e0 da dd a3 3e 81 de 1c be 63 64 27 be 71 8f c5 3c
       0.32005197 -0.15319254 -0.16346888 0.02411625
0003f0 79 2b 80 be 63 bc 25 be 40 89 05 3e 8f bf ac 3c
       -0.25033167 -0.16185145 0.13040638 0.021087436

bias f4 [20]
000000 b3 c8 8b be c5 f2 39 be 58 c3 4b bd f4 77 31 be
       -0.2730156 -0.18159015 -0.04974684 -0.17330915
000010 69 14 56 be 87 ad 81 bd d2 90 09 be ef f2 61 3d
       -0.20906223 -0.06331926 -0.13434151 0.05516332
000020 f3 3a 0b 3e 7b 28 c4 3d 93 de 70 3c 42 55 e3 3c
       0.13596706 0.095780335 0.014701503 0.027750615
000030 4e 21 25 3e 48 ed c4 3d 8f 4f 32 3e 1c 87 01 3e
       0.16125986 0.0961557 0.17413162 0.12649196
000040 78 23 42 3e 2d 76 e4 3d 0a 08 41 be f8 f5 8a be
       0.18958843 0.11155353 -0.18850723 -0.27140784

weight f4 [10, 20]
000000 20 d6 f5 3e fa 2c 38 3f c1 dc 01 be 3e d4 4f 3e
       0.48014927 0.7194363 -0.12681867 0.20295808
000010 a3 95 42 be f0 79 19 3e 7f d3 ac 3f 6f 6f 02 bf
       -0.19002394 0.14987922 1.3502043 -0.50951284
000020 09 38 19 3e 88 32 cc 3d 2d b6 c8 3d c6 b5 86 be
       0.14962782 0.099705756 0.09800372 -0.26310557
000030 56 17 65 3e d9 72 e1 be 72 5e ee be 82 9b 88 be
       0.22372183 -0.44032934 -0.4655643 -0.26681143
000040 43 b6 cb 3d ae f7 3e 3e ee 90 4e 3e ff 02 0a 3f
       0.09946873 0.1864917 0.20172474 0.5391082
000050 66 c4 3b bf 60 24 78 bf 3c 84 f5 3d 6e 6d 01 3e
       -0.73346555 -0.96930504 0.11988112 0.126394
000060 60 22 72 3d ab 6a dd be f1 88 9e bf bb 05 07 3f
       0.059114814 -0.43245444 -1.2385541 0.5274312
000070 8f 87 e1 be 37 61 c0 be 6a a8 e6 be d6 ea 02 3f
       -0.44048735 -0.3757417 -0.45050365 0.5113958
000080 28 e5 98 3e 9c 33 12 3f 64 12 d0 3e 0c 66 fc 3e
       0.29862332 0.5711 0.4063903 0.49296606
000090 bc 97 ff 3e 8c d9 cb be bd ac b4 bd 12 1a ed be
       0.49920452 -0.39814413 -0.0882201 -0.46308953
0000a0 fb bb 05 3f f5 73 29 3f dc c2 db 3d d7 87 20 be
       0.5223996 0.6619256 0.10730526 -0.15676819
0000b0 1c 02 0e 3e da 7a 8c 3e 4f 40 7b 3f f9 11 6c be
       0.13867992 0.27437478 0.98145 -0.23053731
0000c0 71 0b 4c 3e 93 3a d9 bc 20 b6 ed 3d fe bc 73 be
       0.1992624 -0.026517188 0.11607003 -0.23802564
0000d0 94 55 a7 bd cb 2d 0d be 0c f1 ff bd 60 ae f2 bc
       -0.081706196 -0.13787 -0.12497148 -0.029624164
0000e0 92 39 07 3e 9d 5b be 3d ce 3b 06 3e 23 aa 8c 3e
       0.13205555 0.092948176 0.13108751 0.27473554
0000f0 2e a8 4c be d0 f9 5b 3e b4 a6 92 3d 70 34 5b 3d
       -0.1998603 0.21482015 0.07160702 0.053516805
000100 88 5a 06 3d 64 b3 ce bd 72 8e 3a be 6d d4 2f 3e
       0.03280118 -0.1009281 -0.18218401 0.17170878
000110 79 e0 a5 bd bd 3d 88 bd 50 21 91 3c 48 9c 23 be
       -0.080994554 -0.06652401 0.01771608 -0.15977585
000120 70 b8 7f be e1 65 62 be fe 4d 58 be 45 6c 66 bd
       -0.24972701 -0.22109176 -0.21123502 -0.056255598
000130 4f 0b 9d 3d e3 0f 8a 3e 8c f7 60 bd 91 12 cb bd
       0.076681726 0.26965246 -0.05492358 -0.09915651
000140 c0 6e f3 3e 22 5e 7c 3f dc 95 2d be 0c 07 08 3e
       0.47545433 0.98581135 -0.16951698 0.13283938
000150 2d 9f 5f be 03 46 ec bc 1a 77 a1 3f 80 db c2 be
       -0.21838064 -0.028841978 1.2614472 -0.3805809
000160 f9 25 03 3d 8d 93 62 3e 84 ae db 3d 26 20 82 be
       0.032018635 0.22126599 0.107266456 -0.25415152
000170 3a 32 1a 3e e5 37 8a be 34 17 42 bf db 2c 69 bf
       0.15058222 -0.2699577 -0.75816655 -0.9108407
000180 ab de 0f 3e 3e c1 1e bd e6 09 c5 bd 8c da e0 3e
       0.14049785 -0.03875851 -0.096210286 0.43916738
000190 ce 0d 04 3e e0 cb 46 bc a8 ef 38 3e 84 14 85 3d
       0.12895891 -0.0121335685 0.18060172 0.06498054
0001a0 f0 3e 06 be ee b0 15 be 44 b9 ba bd d7 2e 2c be
       -0.13109946 -0.14618275 -0.09117368 -0.16814743
0001b0 c2 cd 36 be 35 e4 b7 3d e0 55 32 3d 13 37 01 3e
       -0.17851928 0.08979074 0.043538928 0.12618665
0001c0 14 44 06 be 72 ac 4f be dd 6b 45 bd 74 c8 23 be
       -0.13111907 -0.20280626 -0.04819857 -0.15994436
0001d0 53 3d 4b be f3 2c dc 3d 04 94 5e 3e f8 7c e6 bc
       -0.19847612 0.10750761 0.21736151 -0.028135762
0001e0 24 32 32 be 74 e5 39 bd 7c 72 ab 3d 82 98 4f be
       -0.1740194 -0.04538484 0.083714455 -0.20273021
0001f0 de 91 18 be 68 3e 1d 3e 28 ba 2f 3e 8e 11 92 bd
       -0.14899394 0.15355837 0.17160857 -0.071322545
000200 d4 1d 1d bd bb 0b 17 be 40 12 76 3c 28 a4 b8 3d
       -0.038358524 -0.14750569 0.015019 0.09015685
000210 53 fe 4b 3d 92 01 41 be b4 78 5f bd 05 36 1a 3e
       0.04980309 -0.18848255 -0.05455847 0.1505967
000220 fa 3c 40 be 5f 42 0f 3d 0d 6c 3f be 73 11 38 be
       -0.1877326 0.034975406 -0.18693562 -0.17975406
000230 08 f4 66 3d a0 ea 4a bd fa 89 0c 3e 48 6d 5a be
       0.05638507 -0.049540162 0.13724509 -0.2133075
000240 9c 05 f6 3d 1c ba 5f 3e d6 d3 42 3e 30 af 29 3c
       0.12012789 0.21848339 0.19026121 0.010356709
000250 00 6d 13 ba a5 3d dd bd 66 ed 02 be 2c d2 f7 3d
       -0.0005623847 -0.108027734 -0.12785873 0.12100634
000260 c5 79 5f be 60 6e 0b 3c b6 74 30 3e b0 4a 93 bd
       -0.21823795 0.008510202 0.17232022 -0.0719198
000270 69 6b cc bd 84 73 27 bd 20 cd 36 bc 60 9a aa bd
       -0.09981424 -0.04088165 -0.011157304 -0.08330226
000280 b6 85 2c be ec 23 74 bd 74 fa 9b 3d 56 3f 4d be
       -0.16847882 -0.05960457 0.076161295 -0.20043692
000290 f0 b7 5f bc a8 e1 48 bd f8 ef 83 3d f8 98 4e be
       -0.013654694 -0.049043328 0.06442255 -0.2017554
0002a0 f4 ea 4a 3e d6 24 04 be b0 89 2a bc d8 c2 26 bd
       0.1981619 -0.12904677 -0.010408804 -0.04071316
0002b0 d0 ed 7c 3c f8 40 0e bd a8 d3 71 3d ee 5f 54 be
       0.015437558 -0.034729928 0.05903974 -0.2073972
0002c0 16 cc 06 be 20 4d b1 3d 70 b0 2a 3e e8 91 4a 3e
       -0.1316379 0.086572886 0.16668868 0.19782221
0002d0 41 27 ec bd 55 a0 a7 bd 0c cc 22 3e 5c e4 57 be
       -0.115309246 -0.08184878 0.1589815 -0.21083206
0002e0 a0 5b 4a bd d7 f0 7b be 61 5b 91 bc e1 95 24 be
       -0.049403787 -0.24603592 -0.017743768 -0.160728
0002f0 39 d0 27 be bf 3e 28 be 90 33 ed bd 1a 6b c7 be
       -0.16388024 -0.16430186 -0.115821004 -0.389489
000300 5a 26 8f be dc 6a 6b bd 6c 3e 69 3d 86 3c 38 3e
       -0.27958947 -0.057474956 0.056944296 0.17991838
000310 40 09 00 3e 28 8b ac be 35 2a 2c be 9a 33 11 be
       0.12503529 -0.33699918 -0.16812976 -0.1417984

bias f4 [10]
000000 e1 05 43 3d a9 f7 16 3d 81 05 15 3e 75 9b 1a 3e
       0.04761303 0.03685728 0.14552881 0.15098365
000010 e8 0e af bd 6c 3a 3a 3d 04 ed 68 be c8 da 8d bd
       -0.08547765 0.04546587 -0.22746664 -0.06926495
000020 35 dd 04 be 73 30 28 3c
       -0.12975009 0.010265457

weight f4 [2, 10]
000000 73 b8 da 3e 8b 1b 89 be 92 e5 80 3e ee c7 8a bc
       0.4271885 -0.26778826 0.25175148 -0.016941037
000010 64 bb 3f 3f 70 4e a9 3d d8 bb 9a 3e d0 5e 0c bd
       0.7489531 0.08266914 0.30221438 -0.034270108
000020 c1 c3 95 be 28 2b 65 3f 2a d1 f4 be a3 6b 22 3f
       -0.2925091 0.89518976 -0.4781583 0.6344549
000030 d9 61 77 bd fa 8e 88 be 65 02 c2 be 64 60 45 be
       -0.06039605 -0.26671582 -0.37892452 -0.19275051
000040 c3 7e 3e 3e 4e be 51 3e e7 31 24 be 35 3f ce be
       0.18603043 0.20482752 -0.16034661 -0.40282598

bias f4 [2]
000000 71 44 6e 3d 4a 8f df bd
       0.05817074 -0.10916002
